HNCT(
  (fea_conv): Conv2d(3, 50, kernel_size=(3, 3), stride=(1, 1), padding=(1, 1))
  (B1): HBCT(
    (c1_r): Conv2d(50, 50, kernel_size=(3, 3), stride=(1, 1), padding=(1, 1))
    (esa): ESA(
      (conv1): Conv2d(50, 12, kernel_size=(1, 1), stride=(1, 1))
      (conv_f): Conv2d(12, 12, kernel_size=(1, 1), stride=(1, 1))
      (conv_max): Conv2d(12, 12, kernel_size=(3, 3), stride=(1, 1), padding=(1, 1))
      (conv2): Conv2d(12, 12, kernel_size=(3, 3), stride=(2, 2))
      (conv3): Conv2d(12, 12, kernel_size=(3, 3), stride=(1, 1), padding=(1, 1))
      (conv3_): Conv2d(12, 12, kernel_size=(3, 3), stride=(1, 1), padding=(1, 1))
      (conv4): Conv2d(12, 50, kernel_size=(1, 1), stride=(1, 1))
      (sigmoid): Sigmoid()
      (relu): ReLU(inplace=True)
    )
    (esa2): ESA(
      (conv1): Conv2d(50, 12, kernel_size=(1, 1), stride=(1, 1))
      (conv_f): Conv2d(12, 12, kernel_size=(1, 1), stride=(1, 1))
      (conv_max): Conv2d(12, 12, kernel_size=(3, 3), stride=(1, 1), padding=(1, 1))
      (conv2): Conv2d(12, 12, kernel_size=(3, 3), stride=(2, 2))
      (conv3): Conv2d(12, 12, kernel_size=(3, 3), stride=(1, 1), padding=(1, 1))
      (conv3_): Conv2d(12, 12, kernel_size=(3, 3), stride=(1, 1), padding=(1, 1))
      (conv4): Conv2d(12, 50, kernel_size=(1, 1), stride=(1, 1))
      (sigmoid): Sigmoid()
      (relu): ReLU(inplace=True)
    )
    (swinT): SwinT(
      (transformer_body): Sequential(
        (0): BasicLayer(
          (blocks): ModuleList(
            (0): SwinTransformerBlock(
              (norm1): LayerNorm((50,), eps=1e-05, elementwise_affine=True)
              (attn): WindowAttention(
                (qkv): Linear(in_features=50, out_features=150, bias=True)
                (proj): Linear(in_features=50, out_features=50, bias=True)
                (softmax): Softmax(dim=-1)
              )
              (norm2): LayerNorm((50,), eps=1e-05, elementwise_affine=True)
              (mlp): Mlp(
                (fc1): Linear(in_features=50, out_features=100, bias=True)
                (act): GELU(approximate=none)
                (fc2): Linear(in_features=100, out_features=50, bias=True)
              )
            )
            (1): SwinTransformerBlock(
              (norm1): LayerNorm((50,), eps=1e-05, elementwise_affine=True)
              (attn): WindowAttention(
                (qkv): Linear(in_features=50, out_features=150, bias=True)
                (proj): Linear(in_features=50, out_features=50, bias=True)
                (softmax): Softmax(dim=-1)
              )
              (norm2): LayerNorm((50,), eps=1e-05, elementwise_affine=True)
              (mlp): Mlp(
                (fc1): Linear(in_features=50, out_features=100, bias=True)
                (act): GELU(approximate=none)
                (fc2): Linear(in_features=100, out_features=50, bias=True)
              )
            )
          )
          (patch_embed): PatchEmbed(
            (norm): LayerNorm((50,), eps=1e-05, elementwise_affine=True)
          )
          (patch_unembed): PatchUnEmbed()
        )
      )
    )
  )
  (B2): HBCT(
    (c1_r): Conv2d(50, 50, kernel_size=(3, 3), stride=(1, 1), padding=(1, 1))
    (esa): ESA(
      (conv1): Conv2d(50, 12, kernel_size=(1, 1), stride=(1, 1))
      (conv_f): Conv2d(12, 12, kernel_size=(1, 1), stride=(1, 1))
      (conv_max): Conv2d(12, 12, kernel_size=(3, 3), stride=(1, 1), padding=(1, 1))
      (conv2): Conv2d(12, 12, kernel_size=(3, 3), stride=(2, 2))
      (conv3): Conv2d(12, 12, kernel_size=(3, 3), stride=(1, 1), padding=(1, 1))
      (conv3_): Conv2d(12, 12, kernel_size=(3, 3), stride=(1, 1), padding=(1, 1))
      (conv4): Conv2d(12, 50, kernel_size=(1, 1), stride=(1, 1))
      (sigmoid): Sigmoid()
      (relu): ReLU(inplace=True)
    )
    (esa2): ESA(
      (conv1): Conv2d(50, 12, kernel_size=(1, 1), stride=(1, 1))
      (conv_f): Conv2d(12, 12, kernel_size=(1, 1), stride=(1, 1))
      (conv_max): Conv2d(12, 12, kernel_size=(3, 3), stride=(1, 1), padding=(1, 1))
      (conv2): Conv2d(12, 12, kernel_size=(3, 3), stride=(2, 2))
      (conv3): Conv2d(12, 12, kernel_size=(3, 3), stride=(1, 1), padding=(1, 1))
      (conv3_): Conv2d(12, 12, kernel_size=(3, 3), stride=(1, 1), padding=(1, 1))
      (conv4): Conv2d(12, 50, kernel_size=(1, 1), stride=(1, 1))
      (sigmoid): Sigmoid()
      (relu): ReLU(inplace=True)
    )
    (swinT): SwinT(
      (transformer_body): Sequential(
        (0): BasicLayer(
          (blocks): ModuleList(
            (0): SwinTransformerBlock(
              (norm1): LayerNorm((50,), eps=1e-05, elementwise_affine=True)
              (attn): WindowAttention(
                (qkv): Linear(in_features=50, out_features=150, bias=True)
                (proj): Linear(in_features=50, out_features=50, bias=True)
                (softmax): Softmax(dim=-1)
              )
              (norm2): LayerNorm((50,), eps=1e-05, elementwise_affine=True)
              (mlp): Mlp(
                (fc1): Linear(in_features=50, out_features=100, bias=True)
                (act): GELU(approximate=none)
                (fc2): Linear(in_features=100, out_features=50, bias=True)
              )
            )
            (1): SwinTransformerBlock(
              (norm1): LayerNorm((50,), eps=1e-05, elementwise_affine=True)
              (attn): WindowAttention(
                (qkv): Linear(in_features=50, out_features=150, bias=True)
                (proj): Linear(in_features=50, out_features=50, bias=True)
                (softmax): Softmax(dim=-1)
              )
              (norm2): LayerNorm((50,), eps=1e-05, elementwise_affine=True)
              (mlp): Mlp(
                (fc1): Linear(in_features=50, out_features=100, bias=True)
                (act): GELU(approximate=none)
                (fc2): Linear(in_features=100, out_features=50, bias=True)
              )
            )
          )
          (patch_embed): PatchEmbed(
            (norm): LayerNorm((50,), eps=1e-05, elementwise_affine=True)
          )
          (patch_unembed): PatchUnEmbed()
        )
      )
    )
  )
  (B3): HBCT(
    (c1_r): Conv2d(50, 50, kernel_size=(3, 3), stride=(1, 1), padding=(1, 1))
    (esa): ESA(
      (conv1): Conv2d(50, 12, kernel_size=(1, 1), stride=(1, 1))
      (conv_f): Conv2d(12, 12, kernel_size=(1, 1), stride=(1, 1))
      (conv_max): Conv2d(12, 12, kernel_size=(3, 3), stride=(1, 1), padding=(1, 1))
      (conv2): Conv2d(12, 12, kernel_size=(3, 3), stride=(2, 2))
      (conv3): Conv2d(12, 12, kernel_size=(3, 3), stride=(1, 1), padding=(1, 1))
      (conv3_): Conv2d(12, 12, kernel_size=(3, 3), stride=(1, 1), padding=(1, 1))
      (conv4): Conv2d(12, 50, kernel_size=(1, 1), stride=(1, 1))
      (sigmoid): Sigmoid()
      (relu): ReLU(inplace=True)
    )
    (esa2): ESA(
      (conv1): Conv2d(50, 12, kernel_size=(1, 1), stride=(1, 1))
      (conv_f): Conv2d(12, 12, kernel_size=(1, 1), stride=(1, 1))
      (conv_max): Conv2d(12, 12, kernel_size=(3, 3), stride=(1, 1), padding=(1, 1))
      (conv2): Conv2d(12, 12, kernel_size=(3, 3), stride=(2, 2))
      (conv3): Conv2d(12, 12, kernel_size=(3, 3), stride=(1, 1), padding=(1, 1))
      (conv3_): Conv2d(12, 12, kernel_size=(3, 3), stride=(1, 1), padding=(1, 1))
      (conv4): Conv2d(12, 50, kernel_size=(1, 1), stride=(1, 1))
      (sigmoid): Sigmoid()
      (relu): ReLU(inplace=True)
    )
    (swinT): SwinT(
      (transformer_body): Sequential(
        (0): BasicLayer(
          (blocks): ModuleList(
            (0): SwinTransformerBlock(
              (norm1): LayerNorm((50,), eps=1e-05, elementwise_affine=True)
              (attn): WindowAttention(
                (qkv): Linear(in_features=50, out_features=150, bias=True)
                (proj): Linear(in_features=50, out_features=50, bias=True)
                (softmax): Softmax(dim=-1)
              )
              (norm2): LayerNorm((50,), eps=1e-05, elementwise_affine=True)
              (mlp): Mlp(
                (fc1): Linear(in_features=50, out_features=100, bias=True)
                (act): GELU(approximate=none)
                (fc2): Linear(in_features=100, out_features=50, bias=True)
              )
            )
            (1): SwinTransformerBlock(
              (norm1): LayerNorm((50,), eps=1e-05, elementwise_affine=True)
              (attn): WindowAttention(
                (qkv): Linear(in_features=50, out_features=150, bias=True)
                (proj): Linear(in_features=50, out_features=50, bias=True)
                (softmax): Softmax(dim=-1)
              )
              (norm2): LayerNorm((50,), eps=1e-05, elementwise_affine=True)
              (mlp): Mlp(
                (fc1): Linear(in_features=50, out_features=100, bias=True)
                (act): GELU(approximate=none)
                (fc2): Linear(in_features=100, out_features=50, bias=True)
              )
            )
          )
          (patch_embed): PatchEmbed(
            (norm): LayerNorm((50,), eps=1e-05, elementwise_affine=True)
          )
          (patch_unembed): PatchUnEmbed()
        )
      )
    )
  )
  (B4): HBCT(
    (c1_r): Conv2d(50, 50, kernel_size=(3, 3), stride=(1, 1), padding=(1, 1))
    (esa): ESA(
      (conv1): Conv2d(50, 12, kernel_size=(1, 1), stride=(1, 1))
      (conv_f): Conv2d(12, 12, kernel_size=(1, 1), stride=(1, 1))
      (conv_max): Conv2d(12, 12, kernel_size=(3, 3), stride=(1, 1), padding=(1, 1))
      (conv2): Conv2d(12, 12, kernel_size=(3, 3), stride=(2, 2))
      (conv3): Conv2d(12, 12, kernel_size=(3, 3), stride=(1, 1), padding=(1, 1))
      (conv3_): Conv2d(12, 12, kernel_size=(3, 3), stride=(1, 1), padding=(1, 1))
      (conv4): Conv2d(12, 50, kernel_size=(1, 1), stride=(1, 1))
      (sigmoid): Sigmoid()
      (relu): ReLU(inplace=True)
    )
    (esa2): ESA(
      (conv1): Conv2d(50, 12, kernel_size=(1, 1), stride=(1, 1))
      (conv_f): Conv2d(12, 12, kernel_size=(1, 1), stride=(1, 1))
      (conv_max): Conv2d(12, 12, kernel_size=(3, 3), stride=(1, 1), padding=(1, 1))
      (conv2): Conv2d(12, 12, kernel_size=(3, 3), stride=(2, 2))
      (conv3): Conv2d(12, 12, kernel_size=(3, 3), stride=(1, 1), padding=(1, 1))
      (conv3_): Conv2d(12, 12, kernel_size=(3, 3), stride=(1, 1), padding=(1, 1))
      (conv4): Conv2d(12, 50, kernel_size=(1, 1), stride=(1, 1))
      (sigmoid): Sigmoid()
      (relu): ReLU(inplace=True)
    )
    (swinT): SwinT(
      (transformer_body): Sequential(
        (0): BasicLayer(
          (blocks): ModuleList(
            (0): SwinTransformerBlock(
              (norm1): LayerNorm((50,), eps=1e-05, elementwise_affine=True)
              (attn): WindowAttention(
                (qkv): Linear(in_features=50, out_features=150, bias=True)
                (proj): Linear(in_features=50, out_features=50, bias=True)
                (softmax): Softmax(dim=-1)
              )
              (norm2): LayerNorm((50,), eps=1e-05, elementwise_affine=True)
              (mlp): Mlp(
                (fc1): Linear(in_features=50, out_features=100, bias=True)
                (act): GELU(approximate=none)
                (fc2): Linear(in_features=100, out_features=50, bias=True)
              )
            )
            (1): SwinTransformerBlock(
              (norm1): LayerNorm((50,), eps=1e-05, elementwise_affine=True)
              (attn): WindowAttention(
                (qkv): Linear(in_features=50, out_features=150, bias=True)
                (proj): Linear(in_features=50, out_features=50, bias=True)
                (softmax): Softmax(dim=-1)
              )
              (norm2): LayerNorm((50,), eps=1e-05, elementwise_affine=True)
              (mlp): Mlp(
                (fc1): Linear(in_features=50, out_features=100, bias=True)
                (act): GELU(approximate=none)
                (fc2): Linear(in_features=100, out_features=50, bias=True)
              )
            )
          )
          (patch_embed): PatchEmbed(
            (norm): LayerNorm((50,), eps=1e-05, elementwise_affine=True)
          )
          (patch_unembed): PatchUnEmbed()
        )
      )
    )
  )
  (c): Sequential(
    (0): Conv2d(200, 50, kernel_size=(1, 1), stride=(1, 1))
    (1): LeakyReLU(negative_slope=0.05, inplace=True)
  )
  (LR_conv): Conv2d(50, 50, kernel_size=(3, 3), stride=(1, 1), padding=(1, 1))
  (upsampler): Sequential(
    (0): Conv2d(50, 48, kernel_size=(3, 3), stride=(1, 1), padding=(1, 1))
    (1): PixelShuffle(upscale_factor=4)
  )
)
[Epoch 0]	Learning rate: 5.00e-4
HNCT(
  (fea_conv): Conv2d(3, 50, kernel_size=(3, 3), stride=(1, 1), padding=(1, 1))
  (B1): HBCT(
    (c1_r): Conv2d(50, 50, kernel_size=(3, 3), stride=(1, 1), padding=(1, 1))
    (esa): ESA(
      (conv1): Conv2d(50, 12, kernel_size=(1, 1), stride=(1, 1))
      (conv_f): Conv2d(12, 12, kernel_size=(1, 1), stride=(1, 1))
      (conv_max): Conv2d(12, 12, kernel_size=(3, 3), stride=(1, 1), padding=(1, 1))
      (conv2): Conv2d(12, 12, kernel_size=(3, 3), stride=(2, 2))
      (conv3): Conv2d(12, 12, kernel_size=(3, 3), stride=(1, 1), padding=(1, 1))
      (conv3_): Conv2d(12, 12, kernel_size=(3, 3), stride=(1, 1), padding=(1, 1))
      (conv4): Conv2d(12, 50, kernel_size=(1, 1), stride=(1, 1))
      (sigmoid): Sigmoid()
      (relu): ReLU(inplace=True)
    )
    (esa2): ESA(
      (conv1): Conv2d(50, 12, kernel_size=(1, 1), stride=(1, 1))
      (conv_f): Conv2d(12, 12, kernel_size=(1, 1), stride=(1, 1))
      (conv_max): Conv2d(12, 12, kernel_size=(3, 3), stride=(1, 1), padding=(1, 1))
      (conv2): Conv2d(12, 12, kernel_size=(3, 3), stride=(2, 2))
      (conv3): Conv2d(12, 12, kernel_size=(3, 3), stride=(1, 1), padding=(1, 1))
      (conv3_): Conv2d(12, 12, kernel_size=(3, 3), stride=(1, 1), padding=(1, 1))
      (conv4): Conv2d(12, 50, kernel_size=(1, 1), stride=(1, 1))
      (sigmoid): Sigmoid()
      (relu): ReLU(inplace=True)
    )
    (swinT): SwinT(
      (transformer_body): Sequential(
        (0): BasicLayer(
          (blocks): ModuleList(
            (0): SwinTransformerBlock(
              (norm1): LayerNorm((50,), eps=1e-05, elementwise_affine=True)
              (attn): WindowAttention(
                (qkv): Linear(in_features=50, out_features=150, bias=True)
                (proj): Linear(in_features=50, out_features=50, bias=True)
                (softmax): Softmax(dim=-1)
              )
              (norm2): LayerNorm((50,), eps=1e-05, elementwise_affine=True)
              (mlp): Mlp(
                (fc1): Linear(in_features=50, out_features=100, bias=True)
                (act): GELU(approximate=none)
                (fc2): Linear(in_features=100, out_features=50, bias=True)
              )
            )
            (1): SwinTransformerBlock(
              (norm1): LayerNorm((50,), eps=1e-05, elementwise_affine=True)
              (attn): WindowAttention(
                (qkv): Linear(in_features=50, out_features=150, bias=True)
                (proj): Linear(in_features=50, out_features=50, bias=True)
                (softmax): Softmax(dim=-1)
              )
              (norm2): LayerNorm((50,), eps=1e-05, elementwise_affine=True)
              (mlp): Mlp(
                (fc1): Linear(in_features=50, out_features=100, bias=True)
                (act): GELU(approximate=none)
                (fc2): Linear(in_features=100, out_features=50, bias=True)
              )
            )
          )
          (patch_embed): PatchEmbed(
            (norm): LayerNorm((50,), eps=1e-05, elementwise_affine=True)
          )
          (patch_unembed): PatchUnEmbed()
        )
      )
    )
  )
  (B2): HBCT(
    (c1_r): Conv2d(50, 50, kernel_size=(3, 3), stride=(1, 1), padding=(1, 1))
    (esa): ESA(
      (conv1): Conv2d(50, 12, kernel_size=(1, 1), stride=(1, 1))
      (conv_f): Conv2d(12, 12, kernel_size=(1, 1), stride=(1, 1))
      (conv_max): Conv2d(12, 12, kernel_size=(3, 3), stride=(1, 1), padding=(1, 1))
      (conv2): Conv2d(12, 12, kernel_size=(3, 3), stride=(2, 2))
      (conv3): Conv2d(12, 12, kernel_size=(3, 3), stride=(1, 1), padding=(1, 1))
      (conv3_): Conv2d(12, 12, kernel_size=(3, 3), stride=(1, 1), padding=(1, 1))
      (conv4): Conv2d(12, 50, kernel_size=(1, 1), stride=(1, 1))
      (sigmoid): Sigmoid()
      (relu): ReLU(inplace=True)
    )
    (esa2): ESA(
      (conv1): Conv2d(50, 12, kernel_size=(1, 1), stride=(1, 1))
      (conv_f): Conv2d(12, 12, kernel_size=(1, 1), stride=(1, 1))
      (conv_max): Conv2d(12, 12, kernel_size=(3, 3), stride=(1, 1), padding=(1, 1))
      (conv2): Conv2d(12, 12, kernel_size=(3, 3), stride=(2, 2))
      (conv3): Conv2d(12, 12, kernel_size=(3, 3), stride=(1, 1), padding=(1, 1))
      (conv3_): Conv2d(12, 12, kernel_size=(3, 3), stride=(1, 1), padding=(1, 1))
      (conv4): Conv2d(12, 50, kernel_size=(1, 1), stride=(1, 1))
      (sigmoid): Sigmoid()
      (relu): ReLU(inplace=True)
    )
    (swinT): SwinT(
      (transformer_body): Sequential(
        (0): BasicLayer(
          (blocks): ModuleList(
            (0): SwinTransformerBlock(
              (norm1): LayerNorm((50,), eps=1e-05, elementwise_affine=True)
              (attn): WindowAttention(
                (qkv): Linear(in_features=50, out_features=150, bias=True)
                (proj): Linear(in_features=50, out_features=50, bias=True)
                (softmax): Softmax(dim=-1)
              )
              (norm2): LayerNorm((50,), eps=1e-05, elementwise_affine=True)
              (mlp): Mlp(
                (fc1): Linear(in_features=50, out_features=100, bias=True)
                (act): GELU(approximate=none)
                (fc2): Linear(in_features=100, out_features=50, bias=True)
              )
            )
            (1): SwinTransformerBlock(
              (norm1): LayerNorm((50,), eps=1e-05, elementwise_affine=True)
              (attn): WindowAttention(
                (qkv): Linear(in_features=50, out_features=150, bias=True)
                (proj): Linear(in_features=50, out_features=50, bias=True)
                (softmax): Softmax(dim=-1)
              )
              (norm2): LayerNorm((50,), eps=1e-05, elementwise_affine=True)
              (mlp): Mlp(
                (fc1): Linear(in_features=50, out_features=100, bias=True)
                (act): GELU(approximate=none)
                (fc2): Linear(in_features=100, out_features=50, bias=True)
              )
            )
          )
          (patch_embed): PatchEmbed(
            (norm): LayerNorm((50,), eps=1e-05, elementwise_affine=True)
          )
          (patch_unembed): PatchUnEmbed()
        )
      )
    )
  )
  (B3): HBCT(
    (c1_r): Conv2d(50, 50, kernel_size=(3, 3), stride=(1, 1), padding=(1, 1))
    (esa): ESA(
      (conv1): Conv2d(50, 12, kernel_size=(1, 1), stride=(1, 1))
      (conv_f): Conv2d(12, 12, kernel_size=(1, 1), stride=(1, 1))
      (conv_max): Conv2d(12, 12, kernel_size=(3, 3), stride=(1, 1), padding=(1, 1))
      (conv2): Conv2d(12, 12, kernel_size=(3, 3), stride=(2, 2))
      (conv3): Conv2d(12, 12, kernel_size=(3, 3), stride=(1, 1), padding=(1, 1))
      (conv3_): Conv2d(12, 12, kernel_size=(3, 3), stride=(1, 1), padding=(1, 1))
      (conv4): Conv2d(12, 50, kernel_size=(1, 1), stride=(1, 1))
      (sigmoid): Sigmoid()
      (relu): ReLU(inplace=True)
    )
    (esa2): ESA(
      (conv1): Conv2d(50, 12, kernel_size=(1, 1), stride=(1, 1))
      (conv_f): Conv2d(12, 12, kernel_size=(1, 1), stride=(1, 1))
      (conv_max): Conv2d(12, 12, kernel_size=(3, 3), stride=(1, 1), padding=(1, 1))
      (conv2): Conv2d(12, 12, kernel_size=(3, 3), stride=(2, 2))
      (conv3): Conv2d(12, 12, kernel_size=(3, 3), stride=(1, 1), padding=(1, 1))
      (conv3_): Conv2d(12, 12, kernel_size=(3, 3), stride=(1, 1), padding=(1, 1))
      (conv4): Conv2d(12, 50, kernel_size=(1, 1), stride=(1, 1))
      (sigmoid): Sigmoid()
      (relu): ReLU(inplace=True)
    )
    (swinT): SwinT(
      (transformer_body): Sequential(
        (0): BasicLayer(
          (blocks): ModuleList(
            (0): SwinTransformerBlock(
              (norm1): LayerNorm((50,), eps=1e-05, elementwise_affine=True)
              (attn): WindowAttention(
                (qkv): Linear(in_features=50, out_features=150, bias=True)
                (proj): Linear(in_features=50, out_features=50, bias=True)
                (softmax): Softmax(dim=-1)
              )
              (norm2): LayerNorm((50,), eps=1e-05, elementwise_affine=True)
              (mlp): Mlp(
                (fc1): Linear(in_features=50, out_features=100, bias=True)
                (act): GELU(approximate=none)
                (fc2): Linear(in_features=100, out_features=50, bias=True)
              )
            )
            (1): SwinTransformerBlock(
              (norm1): LayerNorm((50,), eps=1e-05, elementwise_affine=True)
              (attn): WindowAttention(
                (qkv): Linear(in_features=50, out_features=150, bias=True)
                (proj): Linear(in_features=50, out_features=50, bias=True)
                (softmax): Softmax(dim=-1)
              )
              (norm2): LayerNorm((50,), eps=1e-05, elementwise_affine=True)
              (mlp): Mlp(
                (fc1): Linear(in_features=50, out_features=100, bias=True)
                (act): GELU(approximate=none)
                (fc2): Linear(in_features=100, out_features=50, bias=True)
              )
            )
          )
          (patch_embed): PatchEmbed(
            (norm): LayerNorm((50,), eps=1e-05, elementwise_affine=True)
          )
          (patch_unembed): PatchUnEmbed()
        )
      )
    )
  )
  (B4): HBCT(
    (c1_r): Conv2d(50, 50, kernel_size=(3, 3), stride=(1, 1), padding=(1, 1))
    (esa): ESA(
      (conv1): Conv2d(50, 12, kernel_size=(1, 1), stride=(1, 1))
      (conv_f): Conv2d(12, 12, kernel_size=(1, 1), stride=(1, 1))
      (conv_max): Conv2d(12, 12, kernel_size=(3, 3), stride=(1, 1), padding=(1, 1))
      (conv2): Conv2d(12, 12, kernel_size=(3, 3), stride=(2, 2))
      (conv3): Conv2d(12, 12, kernel_size=(3, 3), stride=(1, 1), padding=(1, 1))
      (conv3_): Conv2d(12, 12, kernel_size=(3, 3), stride=(1, 1), padding=(1, 1))
      (conv4): Conv2d(12, 50, kernel_size=(1, 1), stride=(1, 1))
      (sigmoid): Sigmoid()
      (relu): ReLU(inplace=True)
    )
    (esa2): ESA(
      (conv1): Conv2d(50, 12, kernel_size=(1, 1), stride=(1, 1))
      (conv_f): Conv2d(12, 12, kernel_size=(1, 1), stride=(1, 1))
      (conv_max): Conv2d(12, 12, kernel_size=(3, 3), stride=(1, 1), padding=(1, 1))
      (conv2): Conv2d(12, 12, kernel_size=(3, 3), stride=(2, 2))
      (conv3): Conv2d(12, 12, kernel_size=(3, 3), stride=(1, 1), padding=(1, 1))
      (conv3_): Conv2d(12, 12, kernel_size=(3, 3), stride=(1, 1), padding=(1, 1))
      (conv4): Conv2d(12, 50, kernel_size=(1, 1), stride=(1, 1))
      (sigmoid): Sigmoid()
      (relu): ReLU(inplace=True)
    )
    (swinT): SwinT(
      (transformer_body): Sequential(
        (0): BasicLayer(
          (blocks): ModuleList(
            (0): SwinTransformerBlock(
              (norm1): LayerNorm((50,), eps=1e-05, elementwise_affine=True)
              (attn): WindowAttention(
                (qkv): Linear(in_features=50, out_features=150, bias=True)
                (proj): Linear(in_features=50, out_features=50, bias=True)
                (softmax): Softmax(dim=-1)
              )
              (norm2): LayerNorm((50,), eps=1e-05, elementwise_affine=True)
              (mlp): Mlp(
                (fc1): Linear(in_features=50, out_features=100, bias=True)
                (act): GELU(approximate=none)
                (fc2): Linear(in_features=100, out_features=50, bias=True)
              )
            )
            (1): SwinTransformerBlock(
              (norm1): LayerNorm((50,), eps=1e-05, elementwise_affine=True)
              (attn): WindowAttention(
                (qkv): Linear(in_features=50, out_features=150, bias=True)
                (proj): Linear(in_features=50, out_features=50, bias=True)
                (softmax): Softmax(dim=-1)
              )
              (norm2): LayerNorm((50,), eps=1e-05, elementwise_affine=True)
              (mlp): Mlp(
                (fc1): Linear(in_features=50, out_features=100, bias=True)
                (act): GELU(approximate=none)
                (fc2): Linear(in_features=100, out_features=50, bias=True)
              )
            )
          )
          (patch_embed): PatchEmbed(
            (norm): LayerNorm((50,), eps=1e-05, elementwise_affine=True)
          )
          (patch_unembed): PatchUnEmbed()
        )
      )
    )
  )
  (c): Sequential(
    (0): Conv2d(200, 50, kernel_size=(1, 1), stride=(1, 1))
    (1): LeakyReLU(negative_slope=0.05, inplace=True)
  )
  (LR_conv): Conv2d(50, 50, kernel_size=(3, 3), stride=(1, 1), padding=(1, 1))
  (upsampler): Sequential(
    (0): Conv2d(50, 48, kernel_size=(3, 3), stride=(1, 1), padding=(1, 1))
    (1): PixelShuffle(upscale_factor=4)
  )
)
[Epoch 0]	Learning rate: 5.00e-4
HNCT(
  (fea_conv): Conv2d(3, 50, kernel_size=(3, 3), stride=(1, 1), padding=(1, 1))
  (B1): HBCT(
    (c1_r): Conv2d(50, 50, kernel_size=(3, 3), stride=(1, 1), padding=(1, 1))
    (esa): ESA(
      (conv1): Conv2d(50, 12, kernel_size=(1, 1), stride=(1, 1))
      (conv_f): Conv2d(12, 12, kernel_size=(1, 1), stride=(1, 1))
      (conv_max): Conv2d(12, 12, kernel_size=(3, 3), stride=(1, 1), padding=(1, 1))
      (conv2): Conv2d(12, 12, kernel_size=(3, 3), stride=(2, 2))
      (conv3): Conv2d(12, 12, kernel_size=(3, 3), stride=(1, 1), padding=(1, 1))
      (conv3_): Conv2d(12, 12, kernel_size=(3, 3), stride=(1, 1), padding=(1, 1))
      (conv4): Conv2d(12, 50, kernel_size=(1, 1), stride=(1, 1))
      (sigmoid): Sigmoid()
      (relu): ReLU(inplace=True)
    )
    (esa2): ESA(
      (conv1): Conv2d(50, 12, kernel_size=(1, 1), stride=(1, 1))
      (conv_f): Conv2d(12, 12, kernel_size=(1, 1), stride=(1, 1))
      (conv_max): Conv2d(12, 12, kernel_size=(3, 3), stride=(1, 1), padding=(1, 1))
      (conv2): Conv2d(12, 12, kernel_size=(3, 3), stride=(2, 2))
      (conv3): Conv2d(12, 12, kernel_size=(3, 3), stride=(1, 1), padding=(1, 1))
      (conv3_): Conv2d(12, 12, kernel_size=(3, 3), stride=(1, 1), padding=(1, 1))
      (conv4): Conv2d(12, 50, kernel_size=(1, 1), stride=(1, 1))
      (sigmoid): Sigmoid()
      (relu): ReLU(inplace=True)
    )
    (swinT): SwinT(
      (transformer_body): Sequential(
        (0): BasicLayer(
          (blocks): ModuleList(
            (0): SwinTransformerBlock(
              (norm1): LayerNorm((50,), eps=1e-05, elementwise_affine=True)
              (attn): WindowAttention(
                (qkv): Linear(in_features=50, out_features=150, bias=True)
                (proj): Linear(in_features=50, out_features=50, bias=True)
                (softmax): Softmax(dim=-1)
              )
              (norm2): LayerNorm((50,), eps=1e-05, elementwise_affine=True)
              (mlp): Mlp(
                (fc1): Linear(in_features=50, out_features=100, bias=True)
                (act): GELU(approximate=none)
                (fc2): Linear(in_features=100, out_features=50, bias=True)
              )
            )
            (1): SwinTransformerBlock(
              (norm1): LayerNorm((50,), eps=1e-05, elementwise_affine=True)
              (attn): WindowAttention(
                (qkv): Linear(in_features=50, out_features=150, bias=True)
                (proj): Linear(in_features=50, out_features=50, bias=True)
                (softmax): Softmax(dim=-1)
              )
              (norm2): LayerNorm((50,), eps=1e-05, elementwise_affine=True)
              (mlp): Mlp(
                (fc1): Linear(in_features=50, out_features=100, bias=True)
                (act): GELU(approximate=none)
                (fc2): Linear(in_features=100, out_features=50, bias=True)
              )
            )
          )
          (patch_embed): PatchEmbed(
            (norm): LayerNorm((50,), eps=1e-05, elementwise_affine=True)
          )
          (patch_unembed): PatchUnEmbed()
        )
      )
    )
  )
  (B2): HBCT(
    (c1_r): Conv2d(50, 50, kernel_size=(3, 3), stride=(1, 1), padding=(1, 1))
    (esa): ESA(
      (conv1): Conv2d(50, 12, kernel_size=(1, 1), stride=(1, 1))
      (conv_f): Conv2d(12, 12, kernel_size=(1, 1), stride=(1, 1))
      (conv_max): Conv2d(12, 12, kernel_size=(3, 3), stride=(1, 1), padding=(1, 1))
      (conv2): Conv2d(12, 12, kernel_size=(3, 3), stride=(2, 2))
      (conv3): Conv2d(12, 12, kernel_size=(3, 3), stride=(1, 1), padding=(1, 1))
      (conv3_): Conv2d(12, 12, kernel_size=(3, 3), stride=(1, 1), padding=(1, 1))
      (conv4): Conv2d(12, 50, kernel_size=(1, 1), stride=(1, 1))
      (sigmoid): Sigmoid()
      (relu): ReLU(inplace=True)
    )
    (esa2): ESA(
      (conv1): Conv2d(50, 12, kernel_size=(1, 1), stride=(1, 1))
      (conv_f): Conv2d(12, 12, kernel_size=(1, 1), stride=(1, 1))
      (conv_max): Conv2d(12, 12, kernel_size=(3, 3), stride=(1, 1), padding=(1, 1))
      (conv2): Conv2d(12, 12, kernel_size=(3, 3), stride=(2, 2))
      (conv3): Conv2d(12, 12, kernel_size=(3, 3), stride=(1, 1), padding=(1, 1))
      (conv3_): Conv2d(12, 12, kernel_size=(3, 3), stride=(1, 1), padding=(1, 1))
      (conv4): Conv2d(12, 50, kernel_size=(1, 1), stride=(1, 1))
      (sigmoid): Sigmoid()
      (relu): ReLU(inplace=True)
    )
    (swinT): SwinT(
      (transformer_body): Sequential(
        (0): BasicLayer(
          (blocks): ModuleList(
            (0): SwinTransformerBlock(
              (norm1): LayerNorm((50,), eps=1e-05, elementwise_affine=True)
              (attn): WindowAttention(
                (qkv): Linear(in_features=50, out_features=150, bias=True)
                (proj): Linear(in_features=50, out_features=50, bias=True)
                (softmax): Softmax(dim=-1)
              )
              (norm2): LayerNorm((50,), eps=1e-05, elementwise_affine=True)
              (mlp): Mlp(
                (fc1): Linear(in_features=50, out_features=100, bias=True)
                (act): GELU(approximate=none)
                (fc2): Linear(in_features=100, out_features=50, bias=True)
              )
            )
            (1): SwinTransformerBlock(
              (norm1): LayerNorm((50,), eps=1e-05, elementwise_affine=True)
              (attn): WindowAttention(
                (qkv): Linear(in_features=50, out_features=150, bias=True)
                (proj): Linear(in_features=50, out_features=50, bias=True)
                (softmax): Softmax(dim=-1)
              )
              (norm2): LayerNorm((50,), eps=1e-05, elementwise_affine=True)
              (mlp): Mlp(
                (fc1): Linear(in_features=50, out_features=100, bias=True)
                (act): GELU(approximate=none)
                (fc2): Linear(in_features=100, out_features=50, bias=True)
              )
            )
          )
          (patch_embed): PatchEmbed(
            (norm): LayerNorm((50,), eps=1e-05, elementwise_affine=True)
          )
          (patch_unembed): PatchUnEmbed()
        )
      )
    )
  )
  (B3): HBCT(
    (c1_r): Conv2d(50, 50, kernel_size=(3, 3), stride=(1, 1), padding=(1, 1))
    (esa): ESA(
      (conv1): Conv2d(50, 12, kernel_size=(1, 1), stride=(1, 1))
      (conv_f): Conv2d(12, 12, kernel_size=(1, 1), stride=(1, 1))
      (conv_max): Conv2d(12, 12, kernel_size=(3, 3), stride=(1, 1), padding=(1, 1))
      (conv2): Conv2d(12, 12, kernel_size=(3, 3), stride=(2, 2))
      (conv3): Conv2d(12, 12, kernel_size=(3, 3), stride=(1, 1), padding=(1, 1))
      (conv3_): Conv2d(12, 12, kernel_size=(3, 3), stride=(1, 1), padding=(1, 1))
      (conv4): Conv2d(12, 50, kernel_size=(1, 1), stride=(1, 1))
      (sigmoid): Sigmoid()
      (relu): ReLU(inplace=True)
    )
    (esa2): ESA(
      (conv1): Conv2d(50, 12, kernel_size=(1, 1), stride=(1, 1))
      (conv_f): Conv2d(12, 12, kernel_size=(1, 1), stride=(1, 1))
      (conv_max): Conv2d(12, 12, kernel_size=(3, 3), stride=(1, 1), padding=(1, 1))
      (conv2): Conv2d(12, 12, kernel_size=(3, 3), stride=(2, 2))
      (conv3): Conv2d(12, 12, kernel_size=(3, 3), stride=(1, 1), padding=(1, 1))
      (conv3_): Conv2d(12, 12, kernel_size=(3, 3), stride=(1, 1), padding=(1, 1))
      (conv4): Conv2d(12, 50, kernel_size=(1, 1), stride=(1, 1))
      (sigmoid): Sigmoid()
      (relu): ReLU(inplace=True)
    )
    (swinT): SwinT(
      (transformer_body): Sequential(
        (0): BasicLayer(
          (blocks): ModuleList(
            (0): SwinTransformerBlock(
              (norm1): LayerNorm((50,), eps=1e-05, elementwise_affine=True)
              (attn): WindowAttention(
                (qkv): Linear(in_features=50, out_features=150, bias=True)
                (proj): Linear(in_features=50, out_features=50, bias=True)
                (softmax): Softmax(dim=-1)
              )
              (norm2): LayerNorm((50,), eps=1e-05, elementwise_affine=True)
              (mlp): Mlp(
                (fc1): Linear(in_features=50, out_features=100, bias=True)
                (act): GELU(approximate=none)
                (fc2): Linear(in_features=100, out_features=50, bias=True)
              )
            )
            (1): SwinTransformerBlock(
              (norm1): LayerNorm((50,), eps=1e-05, elementwise_affine=True)
              (attn): WindowAttention(
                (qkv): Linear(in_features=50, out_features=150, bias=True)
                (proj): Linear(in_features=50, out_features=50, bias=True)
                (softmax): Softmax(dim=-1)
              )
              (norm2): LayerNorm((50,), eps=1e-05, elementwise_affine=True)
              (mlp): Mlp(
                (fc1): Linear(in_features=50, out_features=100, bias=True)
                (act): GELU(approximate=none)
                (fc2): Linear(in_features=100, out_features=50, bias=True)
              )
            )
          )
          (patch_embed): PatchEmbed(
            (norm): LayerNorm((50,), eps=1e-05, elementwise_affine=True)
          )
          (patch_unembed): PatchUnEmbed()
        )
      )
    )
  )
  (B4): HBCT(
    (c1_r): Conv2d(50, 50, kernel_size=(3, 3), stride=(1, 1), padding=(1, 1))
    (esa): ESA(
      (conv1): Conv2d(50, 12, kernel_size=(1, 1), stride=(1, 1))
      (conv_f): Conv2d(12, 12, kernel_size=(1, 1), stride=(1, 1))
      (conv_max): Conv2d(12, 12, kernel_size=(3, 3), stride=(1, 1), padding=(1, 1))
      (conv2): Conv2d(12, 12, kernel_size=(3, 3), stride=(2, 2))
      (conv3): Conv2d(12, 12, kernel_size=(3, 3), stride=(1, 1), padding=(1, 1))
      (conv3_): Conv2d(12, 12, kernel_size=(3, 3), stride=(1, 1), padding=(1, 1))
      (conv4): Conv2d(12, 50, kernel_size=(1, 1), stride=(1, 1))
      (sigmoid): Sigmoid()
      (relu): ReLU(inplace=True)
    )
    (esa2): ESA(
      (conv1): Conv2d(50, 12, kernel_size=(1, 1), stride=(1, 1))
      (conv_f): Conv2d(12, 12, kernel_size=(1, 1), stride=(1, 1))
      (conv_max): Conv2d(12, 12, kernel_size=(3, 3), stride=(1, 1), padding=(1, 1))
      (conv2): Conv2d(12, 12, kernel_size=(3, 3), stride=(2, 2))
      (conv3): Conv2d(12, 12, kernel_size=(3, 3), stride=(1, 1), padding=(1, 1))
      (conv3_): Conv2d(12, 12, kernel_size=(3, 3), stride=(1, 1), padding=(1, 1))
      (conv4): Conv2d(12, 50, kernel_size=(1, 1), stride=(1, 1))
      (sigmoid): Sigmoid()
      (relu): ReLU(inplace=True)
    )
    (swinT): SwinT(
      (transformer_body): Sequential(
        (0): BasicLayer(
          (blocks): ModuleList(
            (0): SwinTransformerBlock(
              (norm1): LayerNorm((50,), eps=1e-05, elementwise_affine=True)
              (attn): WindowAttention(
                (qkv): Linear(in_features=50, out_features=150, bias=True)
                (proj): Linear(in_features=50, out_features=50, bias=True)
                (softmax): Softmax(dim=-1)
              )
              (norm2): LayerNorm((50,), eps=1e-05, elementwise_affine=True)
              (mlp): Mlp(
                (fc1): Linear(in_features=50, out_features=100, bias=True)
                (act): GELU(approximate=none)
                (fc2): Linear(in_features=100, out_features=50, bias=True)
              )
            )
            (1): SwinTransformerBlock(
              (norm1): LayerNorm((50,), eps=1e-05, elementwise_affine=True)
              (attn): WindowAttention(
                (qkv): Linear(in_features=50, out_features=150, bias=True)
                (proj): Linear(in_features=50, out_features=50, bias=True)
                (softmax): Softmax(dim=-1)
              )
              (norm2): LayerNorm((50,), eps=1e-05, elementwise_affine=True)
              (mlp): Mlp(
                (fc1): Linear(in_features=50, out_features=100, bias=True)
                (act): GELU(approximate=none)
                (fc2): Linear(in_features=100, out_features=50, bias=True)
              )
            )
          )
          (patch_embed): PatchEmbed(
            (norm): LayerNorm((50,), eps=1e-05, elementwise_affine=True)
          )
          (patch_unembed): PatchUnEmbed()
        )
      )
    )
  )
  (c): Sequential(
    (0): Conv2d(200, 50, kernel_size=(1, 1), stride=(1, 1))
    (1): LeakyReLU(negative_slope=0.05, inplace=True)
  )
  (LR_conv): Conv2d(50, 50, kernel_size=(3, 3), stride=(1, 1), padding=(1, 1))
  (upsampler): Sequential(
    (0): Conv2d(50, 48, kernel_size=(3, 3), stride=(1, 1), padding=(1, 1))
    (1): PixelShuffle(upscale_factor=4)
  )
)
[Epoch 0]	Learning rate: 5.00e-4
HNCT(
  (fea_conv): Conv2d(3, 50, kernel_size=(3, 3), stride=(1, 1), padding=(1, 1))
  (B1): HBCT(
    (c1_r): Conv2d(50, 50, kernel_size=(3, 3), stride=(1, 1), padding=(1, 1))
    (esa): ESA(
      (conv1): Conv2d(50, 12, kernel_size=(1, 1), stride=(1, 1))
      (conv_f): Conv2d(12, 12, kernel_size=(1, 1), stride=(1, 1))
      (conv_max): Conv2d(12, 12, kernel_size=(3, 3), stride=(1, 1), padding=(1, 1))
      (conv2): Conv2d(12, 12, kernel_size=(3, 3), stride=(2, 2))
      (conv3): Conv2d(12, 12, kernel_size=(3, 3), stride=(1, 1), padding=(1, 1))
      (conv3_): Conv2d(12, 12, kernel_size=(3, 3), stride=(1, 1), padding=(1, 1))
      (conv4): Conv2d(12, 50, kernel_size=(1, 1), stride=(1, 1))
      (sigmoid): Sigmoid()
      (relu): ReLU(inplace=True)
    )
    (esa2): ESA(
      (conv1): Conv2d(50, 12, kernel_size=(1, 1), stride=(1, 1))
      (conv_f): Conv2d(12, 12, kernel_size=(1, 1), stride=(1, 1))
      (conv_max): Conv2d(12, 12, kernel_size=(3, 3), stride=(1, 1), padding=(1, 1))
      (conv2): Conv2d(12, 12, kernel_size=(3, 3), stride=(2, 2))
      (conv3): Conv2d(12, 12, kernel_size=(3, 3), stride=(1, 1), padding=(1, 1))
      (conv3_): Conv2d(12, 12, kernel_size=(3, 3), stride=(1, 1), padding=(1, 1))
      (conv4): Conv2d(12, 50, kernel_size=(1, 1), stride=(1, 1))
      (sigmoid): Sigmoid()
      (relu): ReLU(inplace=True)
    )
    (swinT): SwinT(
      (transformer_body): Sequential(
        (0): BasicLayer(
          (blocks): ModuleList(
            (0): SwinTransformerBlock(
              (norm1): LayerNorm((50,), eps=1e-05, elementwise_affine=True)
              (attn): WindowAttention(
                (qkv): Linear(in_features=50, out_features=150, bias=True)
                (proj): Linear(in_features=50, out_features=50, bias=True)
                (softmax): Softmax(dim=-1)
              )
              (norm2): LayerNorm((50,), eps=1e-05, elementwise_affine=True)
              (mlp): Mlp(
                (fc1): Linear(in_features=50, out_features=100, bias=True)
                (act): GELU(approximate=none)
                (fc2): Linear(in_features=100, out_features=50, bias=True)
              )
            )
            (1): SwinTransformerBlock(
              (norm1): LayerNorm((50,), eps=1e-05, elementwise_affine=True)
              (attn): WindowAttention(
                (qkv): Linear(in_features=50, out_features=150, bias=True)
                (proj): Linear(in_features=50, out_features=50, bias=True)
                (softmax): Softmax(dim=-1)
              )
              (norm2): LayerNorm((50,), eps=1e-05, elementwise_affine=True)
              (mlp): Mlp(
                (fc1): Linear(in_features=50, out_features=100, bias=True)
                (act): GELU(approximate=none)
                (fc2): Linear(in_features=100, out_features=50, bias=True)
              )
            )
          )
          (patch_embed): PatchEmbed(
            (norm): LayerNorm((50,), eps=1e-05, elementwise_affine=True)
          )
          (patch_unembed): PatchUnEmbed()
        )
      )
    )
  )
  (B2): HBCT(
    (c1_r): Conv2d(50, 50, kernel_size=(3, 3), stride=(1, 1), padding=(1, 1))
    (esa): ESA(
      (conv1): Conv2d(50, 12, kernel_size=(1, 1), stride=(1, 1))
      (conv_f): Conv2d(12, 12, kernel_size=(1, 1), stride=(1, 1))
      (conv_max): Conv2d(12, 12, kernel_size=(3, 3), stride=(1, 1), padding=(1, 1))
      (conv2): Conv2d(12, 12, kernel_size=(3, 3), stride=(2, 2))
      (conv3): Conv2d(12, 12, kernel_size=(3, 3), stride=(1, 1), padding=(1, 1))
      (conv3_): Conv2d(12, 12, kernel_size=(3, 3), stride=(1, 1), padding=(1, 1))
      (conv4): Conv2d(12, 50, kernel_size=(1, 1), stride=(1, 1))
      (sigmoid): Sigmoid()
      (relu): ReLU(inplace=True)
    )
    (esa2): ESA(
      (conv1): Conv2d(50, 12, kernel_size=(1, 1), stride=(1, 1))
      (conv_f): Conv2d(12, 12, kernel_size=(1, 1), stride=(1, 1))
      (conv_max): Conv2d(12, 12, kernel_size=(3, 3), stride=(1, 1), padding=(1, 1))
      (conv2): Conv2d(12, 12, kernel_size=(3, 3), stride=(2, 2))
      (conv3): Conv2d(12, 12, kernel_size=(3, 3), stride=(1, 1), padding=(1, 1))
      (conv3_): Conv2d(12, 12, kernel_size=(3, 3), stride=(1, 1), padding=(1, 1))
      (conv4): Conv2d(12, 50, kernel_size=(1, 1), stride=(1, 1))
      (sigmoid): Sigmoid()
      (relu): ReLU(inplace=True)
    )
    (swinT): SwinT(
      (transformer_body): Sequential(
        (0): BasicLayer(
          (blocks): ModuleList(
            (0): SwinTransformerBlock(
              (norm1): LayerNorm((50,), eps=1e-05, elementwise_affine=True)
              (attn): WindowAttention(
                (qkv): Linear(in_features=50, out_features=150, bias=True)
                (proj): Linear(in_features=50, out_features=50, bias=True)
                (softmax): Softmax(dim=-1)
              )
              (norm2): LayerNorm((50,), eps=1e-05, elementwise_affine=True)
              (mlp): Mlp(
                (fc1): Linear(in_features=50, out_features=100, bias=True)
                (act): GELU(approximate=none)
                (fc2): Linear(in_features=100, out_features=50, bias=True)
              )
            )
            (1): SwinTransformerBlock(
              (norm1): LayerNorm((50,), eps=1e-05, elementwise_affine=True)
              (attn): WindowAttention(
                (qkv): Linear(in_features=50, out_features=150, bias=True)
                (proj): Linear(in_features=50, out_features=50, bias=True)
                (softmax): Softmax(dim=-1)
              )
              (norm2): LayerNorm((50,), eps=1e-05, elementwise_affine=True)
              (mlp): Mlp(
                (fc1): Linear(in_features=50, out_features=100, bias=True)
                (act): GELU(approximate=none)
                (fc2): Linear(in_features=100, out_features=50, bias=True)
              )
            )
          )
          (patch_embed): PatchEmbed(
            (norm): LayerNorm((50,), eps=1e-05, elementwise_affine=True)
          )
          (patch_unembed): PatchUnEmbed()
        )
      )
    )
  )
  (B3): HBCT(
    (c1_r): Conv2d(50, 50, kernel_size=(3, 3), stride=(1, 1), padding=(1, 1))
    (esa): ESA(
      (conv1): Conv2d(50, 12, kernel_size=(1, 1), stride=(1, 1))
      (conv_f): Conv2d(12, 12, kernel_size=(1, 1), stride=(1, 1))
      (conv_max): Conv2d(12, 12, kernel_size=(3, 3), stride=(1, 1), padding=(1, 1))
      (conv2): Conv2d(12, 12, kernel_size=(3, 3), stride=(2, 2))
      (conv3): Conv2d(12, 12, kernel_size=(3, 3), stride=(1, 1), padding=(1, 1))
      (conv3_): Conv2d(12, 12, kernel_size=(3, 3), stride=(1, 1), padding=(1, 1))
      (conv4): Conv2d(12, 50, kernel_size=(1, 1), stride=(1, 1))
      (sigmoid): Sigmoid()
      (relu): ReLU(inplace=True)
    )
    (esa2): ESA(
      (conv1): Conv2d(50, 12, kernel_size=(1, 1), stride=(1, 1))
      (conv_f): Conv2d(12, 12, kernel_size=(1, 1), stride=(1, 1))
      (conv_max): Conv2d(12, 12, kernel_size=(3, 3), stride=(1, 1), padding=(1, 1))
      (conv2): Conv2d(12, 12, kernel_size=(3, 3), stride=(2, 2))
      (conv3): Conv2d(12, 12, kernel_size=(3, 3), stride=(1, 1), padding=(1, 1))
      (conv3_): Conv2d(12, 12, kernel_size=(3, 3), stride=(1, 1), padding=(1, 1))
      (conv4): Conv2d(12, 50, kernel_size=(1, 1), stride=(1, 1))
      (sigmoid): Sigmoid()
      (relu): ReLU(inplace=True)
    )
    (swinT): SwinT(
      (transformer_body): Sequential(
        (0): BasicLayer(
          (blocks): ModuleList(
            (0): SwinTransformerBlock(
              (norm1): LayerNorm((50,), eps=1e-05, elementwise_affine=True)
              (attn): WindowAttention(
                (qkv): Linear(in_features=50, out_features=150, bias=True)
                (proj): Linear(in_features=50, out_features=50, bias=True)
                (softmax): Softmax(dim=-1)
              )
              (norm2): LayerNorm((50,), eps=1e-05, elementwise_affine=True)
              (mlp): Mlp(
                (fc1): Linear(in_features=50, out_features=100, bias=True)
                (act): GELU(approximate=none)
                (fc2): Linear(in_features=100, out_features=50, bias=True)
              )
            )
            (1): SwinTransformerBlock(
              (norm1): LayerNorm((50,), eps=1e-05, elementwise_affine=True)
              (attn): WindowAttention(
                (qkv): Linear(in_features=50, out_features=150, bias=True)
                (proj): Linear(in_features=50, out_features=50, bias=True)
                (softmax): Softmax(dim=-1)
              )
              (norm2): LayerNorm((50,), eps=1e-05, elementwise_affine=True)
              (mlp): Mlp(
                (fc1): Linear(in_features=50, out_features=100, bias=True)
                (act): GELU(approximate=none)
                (fc2): Linear(in_features=100, out_features=50, bias=True)
              )
            )
          )
          (patch_embed): PatchEmbed(
            (norm): LayerNorm((50,), eps=1e-05, elementwise_affine=True)
          )
          (patch_unembed): PatchUnEmbed()
        )
      )
    )
  )
  (B4): HBCT(
    (c1_r): Conv2d(50, 50, kernel_size=(3, 3), stride=(1, 1), padding=(1, 1))
    (esa): ESA(
      (conv1): Conv2d(50, 12, kernel_size=(1, 1), stride=(1, 1))
      (conv_f): Conv2d(12, 12, kernel_size=(1, 1), stride=(1, 1))
      (conv_max): Conv2d(12, 12, kernel_size=(3, 3), stride=(1, 1), padding=(1, 1))
      (conv2): Conv2d(12, 12, kernel_size=(3, 3), stride=(2, 2))
      (conv3): Conv2d(12, 12, kernel_size=(3, 3), stride=(1, 1), padding=(1, 1))
      (conv3_): Conv2d(12, 12, kernel_size=(3, 3), stride=(1, 1), padding=(1, 1))
      (conv4): Conv2d(12, 50, kernel_size=(1, 1), stride=(1, 1))
      (sigmoid): Sigmoid()
      (relu): ReLU(inplace=True)
    )
    (esa2): ESA(
      (conv1): Conv2d(50, 12, kernel_size=(1, 1), stride=(1, 1))
      (conv_f): Conv2d(12, 12, kernel_size=(1, 1), stride=(1, 1))
      (conv_max): Conv2d(12, 12, kernel_size=(3, 3), stride=(1, 1), padding=(1, 1))
      (conv2): Conv2d(12, 12, kernel_size=(3, 3), stride=(2, 2))
      (conv3): Conv2d(12, 12, kernel_size=(3, 3), stride=(1, 1), padding=(1, 1))
      (conv3_): Conv2d(12, 12, kernel_size=(3, 3), stride=(1, 1), padding=(1, 1))
      (conv4): Conv2d(12, 50, kernel_size=(1, 1), stride=(1, 1))
      (sigmoid): Sigmoid()
      (relu): ReLU(inplace=True)
    )
    (swinT): SwinT(
      (transformer_body): Sequential(
        (0): BasicLayer(
          (blocks): ModuleList(
            (0): SwinTransformerBlock(
              (norm1): LayerNorm((50,), eps=1e-05, elementwise_affine=True)
              (attn): WindowAttention(
                (qkv): Linear(in_features=50, out_features=150, bias=True)
                (proj): Linear(in_features=50, out_features=50, bias=True)
                (softmax): Softmax(dim=-1)
              )
              (norm2): LayerNorm((50,), eps=1e-05, elementwise_affine=True)
              (mlp): Mlp(
                (fc1): Linear(in_features=50, out_features=100, bias=True)
                (act): GELU(approximate=none)
                (fc2): Linear(in_features=100, out_features=50, bias=True)
              )
            )
            (1): SwinTransformerBlock(
              (norm1): LayerNorm((50,), eps=1e-05, elementwise_affine=True)
              (attn): WindowAttention(
                (qkv): Linear(in_features=50, out_features=150, bias=True)
                (proj): Linear(in_features=50, out_features=50, bias=True)
                (softmax): Softmax(dim=-1)
              )
              (norm2): LayerNorm((50,), eps=1e-05, elementwise_affine=True)
              (mlp): Mlp(
                (fc1): Linear(in_features=50, out_features=100, bias=True)
                (act): GELU(approximate=none)
                (fc2): Linear(in_features=100, out_features=50, bias=True)
              )
            )
          )
          (patch_embed): PatchEmbed(
            (norm): LayerNorm((50,), eps=1e-05, elementwise_affine=True)
          )
          (patch_unembed): PatchUnEmbed()
        )
      )
    )
  )
  (c): Sequential(
    (0): Conv2d(200, 50, kernel_size=(1, 1), stride=(1, 1))
    (1): LeakyReLU(negative_slope=0.05, inplace=True)
  )
  (LR_conv): Conv2d(50, 50, kernel_size=(3, 3), stride=(1, 1), padding=(1, 1))
  (upsampler): Sequential(
    (0): Conv2d(50, 48, kernel_size=(3, 3), stride=(1, 1), padding=(1, 1))
    (1): PixelShuffle(upscale_factor=4)
  )
)
[Epoch 0]	Learning rate: 5.00e-4
[1600/16000]	[L1: 0.0816]	72.1+19.7s
[3200/16000]	[L1: 0.0637]	65.9+0.2s
[4800/16000]	[L1: 0.0555]	65.4+0.2s
[6400/16000]	[L1: 0.0508]	65.6+0.2s
[8000/16000]	[L1: 0.0475]	65.8+0.2s
[9600/16000]	[L1: 0.0452]	64.3+0.2s
[11200/16000]	[L1: 0.0434]	59.8+0.2s
[12800/16000]	[L1: 0.0421]	60.4+0.2s
[14400/16000]	[L1: 0.0410]	61.0+0.2s
[16000/16000]	[L1: 0.0401]	61.9+0.2s

Evaluation:
HNCT(
  (fea_conv): Conv2d(3, 50, kernel_size=(3, 3), stride=(1, 1), padding=(1, 1))
  (B1): HBCT(
    (c1_r): Conv2d(50, 50, kernel_size=(3, 3), stride=(1, 1), padding=(1, 1))
    (esa): ESA(
      (conv1): Conv2d(50, 12, kernel_size=(1, 1), stride=(1, 1))
      (conv_f): Conv2d(12, 12, kernel_size=(1, 1), stride=(1, 1))
      (conv_max): Conv2d(12, 12, kernel_size=(3, 3), stride=(1, 1), padding=(1, 1))
      (conv2): Conv2d(12, 12, kernel_size=(3, 3), stride=(2, 2))
      (conv3): Conv2d(12, 12, kernel_size=(3, 3), stride=(1, 1), padding=(1, 1))
      (conv3_): Conv2d(12, 12, kernel_size=(3, 3), stride=(1, 1), padding=(1, 1))
      (conv4): Conv2d(12, 50, kernel_size=(1, 1), stride=(1, 1))
      (sigmoid): Sigmoid()
      (relu): ReLU(inplace=True)
    )
    (esa2): ESA(
      (conv1): Conv2d(50, 12, kernel_size=(1, 1), stride=(1, 1))
      (conv_f): Conv2d(12, 12, kernel_size=(1, 1), stride=(1, 1))
      (conv_max): Conv2d(12, 12, kernel_size=(3, 3), stride=(1, 1), padding=(1, 1))
      (conv2): Conv2d(12, 12, kernel_size=(3, 3), stride=(2, 2))
      (conv3): Conv2d(12, 12, kernel_size=(3, 3), stride=(1, 1), padding=(1, 1))
      (conv3_): Conv2d(12, 12, kernel_size=(3, 3), stride=(1, 1), padding=(1, 1))
      (conv4): Conv2d(12, 50, kernel_size=(1, 1), stride=(1, 1))
      (sigmoid): Sigmoid()
      (relu): ReLU(inplace=True)
    )
    (swinT): SwinT(
      (transformer_body): Sequential(
        (0): BasicLayer(
          (blocks): ModuleList(
            (0): SwinTransformerBlock(
              (norm1): LayerNorm((50,), eps=1e-05, elementwise_affine=True)
              (attn): WindowAttention(
                (qkv): Linear(in_features=50, out_features=150, bias=True)
                (proj): Linear(in_features=50, out_features=50, bias=True)
                (softmax): Softmax(dim=-1)
              )
              (norm2): LayerNorm((50,), eps=1e-05, elementwise_affine=True)
              (mlp): Mlp(
                (fc1): Linear(in_features=50, out_features=100, bias=True)
                (act): GELU(approximate=none)
                (fc2): Linear(in_features=100, out_features=50, bias=True)
              )
            )
            (1): SwinTransformerBlock(
              (norm1): LayerNorm((50,), eps=1e-05, elementwise_affine=True)
              (attn): WindowAttention(
                (qkv): Linear(in_features=50, out_features=150, bias=True)
                (proj): Linear(in_features=50, out_features=50, bias=True)
                (softmax): Softmax(dim=-1)
              )
              (norm2): LayerNorm((50,), eps=1e-05, elementwise_affine=True)
              (mlp): Mlp(
                (fc1): Linear(in_features=50, out_features=100, bias=True)
                (act): GELU(approximate=none)
                (fc2): Linear(in_features=100, out_features=50, bias=True)
              )
            )
          )
          (patch_embed): PatchEmbed(
            (norm): LayerNorm((50,), eps=1e-05, elementwise_affine=True)
          )
          (patch_unembed): PatchUnEmbed()
        )
      )
    )
  )
  (B2): HBCT(
    (c1_r): Conv2d(50, 50, kernel_size=(3, 3), stride=(1, 1), padding=(1, 1))
    (esa): ESA(
      (conv1): Conv2d(50, 12, kernel_size=(1, 1), stride=(1, 1))
      (conv_f): Conv2d(12, 12, kernel_size=(1, 1), stride=(1, 1))
      (conv_max): Conv2d(12, 12, kernel_size=(3, 3), stride=(1, 1), padding=(1, 1))
      (conv2): Conv2d(12, 12, kernel_size=(3, 3), stride=(2, 2))
      (conv3): Conv2d(12, 12, kernel_size=(3, 3), stride=(1, 1), padding=(1, 1))
      (conv3_): Conv2d(12, 12, kernel_size=(3, 3), stride=(1, 1), padding=(1, 1))
      (conv4): Conv2d(12, 50, kernel_size=(1, 1), stride=(1, 1))
      (sigmoid): Sigmoid()
      (relu): ReLU(inplace=True)
    )
    (esa2): ESA(
      (conv1): Conv2d(50, 12, kernel_size=(1, 1), stride=(1, 1))
      (conv_f): Conv2d(12, 12, kernel_size=(1, 1), stride=(1, 1))
      (conv_max): Conv2d(12, 12, kernel_size=(3, 3), stride=(1, 1), padding=(1, 1))
      (conv2): Conv2d(12, 12, kernel_size=(3, 3), stride=(2, 2))
      (conv3): Conv2d(12, 12, kernel_size=(3, 3), stride=(1, 1), padding=(1, 1))
      (conv3_): Conv2d(12, 12, kernel_size=(3, 3), stride=(1, 1), padding=(1, 1))
      (conv4): Conv2d(12, 50, kernel_size=(1, 1), stride=(1, 1))
      (sigmoid): Sigmoid()
      (relu): ReLU(inplace=True)
    )
    (swinT): SwinT(
      (transformer_body): Sequential(
        (0): BasicLayer(
          (blocks): ModuleList(
            (0): SwinTransformerBlock(
              (norm1): LayerNorm((50,), eps=1e-05, elementwise_affine=True)
              (attn): WindowAttention(
                (qkv): Linear(in_features=50, out_features=150, bias=True)
                (proj): Linear(in_features=50, out_features=50, bias=True)
                (softmax): Softmax(dim=-1)
              )
              (norm2): LayerNorm((50,), eps=1e-05, elementwise_affine=True)
              (mlp): Mlp(
                (fc1): Linear(in_features=50, out_features=100, bias=True)
                (act): GELU(approximate=none)
                (fc2): Linear(in_features=100, out_features=50, bias=True)
              )
            )
            (1): SwinTransformerBlock(
              (norm1): LayerNorm((50,), eps=1e-05, elementwise_affine=True)
              (attn): WindowAttention(
                (qkv): Linear(in_features=50, out_features=150, bias=True)
                (proj): Linear(in_features=50, out_features=50, bias=True)
                (softmax): Softmax(dim=-1)
              )
              (norm2): LayerNorm((50,), eps=1e-05, elementwise_affine=True)
              (mlp): Mlp(
                (fc1): Linear(in_features=50, out_features=100, bias=True)
                (act): GELU(approximate=none)
                (fc2): Linear(in_features=100, out_features=50, bias=True)
              )
            )
          )
          (patch_embed): PatchEmbed(
            (norm): LayerNorm((50,), eps=1e-05, elementwise_affine=True)
          )
          (patch_unembed): PatchUnEmbed()
        )
      )
    )
  )
  (B3): HBCT(
    (c1_r): Conv2d(50, 50, kernel_size=(3, 3), stride=(1, 1), padding=(1, 1))
    (esa): ESA(
      (conv1): Conv2d(50, 12, kernel_size=(1, 1), stride=(1, 1))
      (conv_f): Conv2d(12, 12, kernel_size=(1, 1), stride=(1, 1))
      (conv_max): Conv2d(12, 12, kernel_size=(3, 3), stride=(1, 1), padding=(1, 1))
      (conv2): Conv2d(12, 12, kernel_size=(3, 3), stride=(2, 2))
      (conv3): Conv2d(12, 12, kernel_size=(3, 3), stride=(1, 1), padding=(1, 1))
      (conv3_): Conv2d(12, 12, kernel_size=(3, 3), stride=(1, 1), padding=(1, 1))
      (conv4): Conv2d(12, 50, kernel_size=(1, 1), stride=(1, 1))
      (sigmoid): Sigmoid()
      (relu): ReLU(inplace=True)
    )
    (esa2): ESA(
      (conv1): Conv2d(50, 12, kernel_size=(1, 1), stride=(1, 1))
      (conv_f): Conv2d(12, 12, kernel_size=(1, 1), stride=(1, 1))
      (conv_max): Conv2d(12, 12, kernel_size=(3, 3), stride=(1, 1), padding=(1, 1))
      (conv2): Conv2d(12, 12, kernel_size=(3, 3), stride=(2, 2))
      (conv3): Conv2d(12, 12, kernel_size=(3, 3), stride=(1, 1), padding=(1, 1))
      (conv3_): Conv2d(12, 12, kernel_size=(3, 3), stride=(1, 1), padding=(1, 1))
      (conv4): Conv2d(12, 50, kernel_size=(1, 1), stride=(1, 1))
      (sigmoid): Sigmoid()
      (relu): ReLU(inplace=True)
    )
    (swinT): SwinT(
      (transformer_body): Sequential(
        (0): BasicLayer(
          (blocks): ModuleList(
            (0): SwinTransformerBlock(
              (norm1): LayerNorm((50,), eps=1e-05, elementwise_affine=True)
              (attn): WindowAttention(
                (qkv): Linear(in_features=50, out_features=150, bias=True)
                (proj): Linear(in_features=50, out_features=50, bias=True)
                (softmax): Softmax(dim=-1)
              )
              (norm2): LayerNorm((50,), eps=1e-05, elementwise_affine=True)
              (mlp): Mlp(
                (fc1): Linear(in_features=50, out_features=100, bias=True)
                (act): GELU(approximate=none)
                (fc2): Linear(in_features=100, out_features=50, bias=True)
              )
            )
            (1): SwinTransformerBlock(
              (norm1): LayerNorm((50,), eps=1e-05, elementwise_affine=True)
              (attn): WindowAttention(
                (qkv): Linear(in_features=50, out_features=150, bias=True)
                (proj): Linear(in_features=50, out_features=50, bias=True)
                (softmax): Softmax(dim=-1)
              )
              (norm2): LayerNorm((50,), eps=1e-05, elementwise_affine=True)
              (mlp): Mlp(
                (fc1): Linear(in_features=50, out_features=100, bias=True)
                (act): GELU(approximate=none)
                (fc2): Linear(in_features=100, out_features=50, bias=True)
              )
            )
          )
          (patch_embed): PatchEmbed(
            (norm): LayerNorm((50,), eps=1e-05, elementwise_affine=True)
          )
          (patch_unembed): PatchUnEmbed()
        )
      )
    )
  )
  (B4): HBCT(
    (c1_r): Conv2d(50, 50, kernel_size=(3, 3), stride=(1, 1), padding=(1, 1))
    (esa): ESA(
      (conv1): Conv2d(50, 12, kernel_size=(1, 1), stride=(1, 1))
      (conv_f): Conv2d(12, 12, kernel_size=(1, 1), stride=(1, 1))
      (conv_max): Conv2d(12, 12, kernel_size=(3, 3), stride=(1, 1), padding=(1, 1))
      (conv2): Conv2d(12, 12, kernel_size=(3, 3), stride=(2, 2))
      (conv3): Conv2d(12, 12, kernel_size=(3, 3), stride=(1, 1), padding=(1, 1))
      (conv3_): Conv2d(12, 12, kernel_size=(3, 3), stride=(1, 1), padding=(1, 1))
      (conv4): Conv2d(12, 50, kernel_size=(1, 1), stride=(1, 1))
      (sigmoid): Sigmoid()
      (relu): ReLU(inplace=True)
    )
    (esa2): ESA(
      (conv1): Conv2d(50, 12, kernel_size=(1, 1), stride=(1, 1))
      (conv_f): Conv2d(12, 12, kernel_size=(1, 1), stride=(1, 1))
      (conv_max): Conv2d(12, 12, kernel_size=(3, 3), stride=(1, 1), padding=(1, 1))
      (conv2): Conv2d(12, 12, kernel_size=(3, 3), stride=(2, 2))
      (conv3): Conv2d(12, 12, kernel_size=(3, 3), stride=(1, 1), padding=(1, 1))
      (conv3_): Conv2d(12, 12, kernel_size=(3, 3), stride=(1, 1), padding=(1, 1))
      (conv4): Conv2d(12, 50, kernel_size=(1, 1), stride=(1, 1))
      (sigmoid): Sigmoid()
      (relu): ReLU(inplace=True)
    )
    (swinT): SwinT(
      (transformer_body): Sequential(
        (0): BasicLayer(
          (blocks): ModuleList(
            (0): SwinTransformerBlock(
              (norm1): LayerNorm((50,), eps=1e-05, elementwise_affine=True)
              (attn): WindowAttention(
                (qkv): Linear(in_features=50, out_features=150, bias=True)
                (proj): Linear(in_features=50, out_features=50, bias=True)
                (softmax): Softmax(dim=-1)
              )
              (norm2): LayerNorm((50,), eps=1e-05, elementwise_affine=True)
              (mlp): Mlp(
                (fc1): Linear(in_features=50, out_features=100, bias=True)
                (act): GELU(approximate=none)
                (fc2): Linear(in_features=100, out_features=50, bias=True)
              )
            )
            (1): SwinTransformerBlock(
              (norm1): LayerNorm((50,), eps=1e-05, elementwise_affine=True)
              (attn): WindowAttention(
                (qkv): Linear(in_features=50, out_features=150, bias=True)
                (proj): Linear(in_features=50, out_features=50, bias=True)
                (softmax): Softmax(dim=-1)
              )
              (norm2): LayerNorm((50,), eps=1e-05, elementwise_affine=True)
              (mlp): Mlp(
                (fc1): Linear(in_features=50, out_features=100, bias=True)
                (act): GELU(approximate=none)
                (fc2): Linear(in_features=100, out_features=50, bias=True)
              )
            )
          )
          (patch_embed): PatchEmbed(
            (norm): LayerNorm((50,), eps=1e-05, elementwise_affine=True)
          )
          (patch_unembed): PatchUnEmbed()
        )
      )
    )
  )
  (c): Sequential(
    (0): Conv2d(200, 50, kernel_size=(1, 1), stride=(1, 1))
    (1): LeakyReLU(negative_slope=0.05, inplace=True)
  )
  (LR_conv): Conv2d(50, 50, kernel_size=(3, 3), stride=(1, 1), padding=(1, 1))
  (upsampler): Sequential(
    (0): Conv2d(50, 48, kernel_size=(3, 3), stride=(1, 1), padding=(1, 1))
    (1): PixelShuffle(upscale_factor=4)
  )
)
[Epoch 0]	Learning rate: 5.00e-4
[1600/16000]	[L1: 0.0854]	61.7+3.8s
[3200/16000]	[L1: 0.0658]	61.7+0.3s
[4800/16000]	[L1: 0.0573]	62.1+0.3s
[6400/16000]	[L1: 0.0520]	61.0+0.4s
[8000/16000]	[L1: 0.0484]	62.2+0.3s
[9600/16000]	[L1: 0.0460]	62.3+0.3s
[11200/16000]	[L1: 0.0440]	62.0+0.3s
[12800/16000]	[L1: 0.0426]	61.9+0.4s
[14400/16000]	[L1: 0.0415]	61.4+0.4s
[16000/16000]	[L1: 0.0405]	61.6+0.2s

Evaluation:
HNCT(
  (fea_conv): Conv2d(3, 50, kernel_size=(3, 3), stride=(1, 1), padding=(1, 1))
  (B1): HBCT(
    (c1_r): Conv2d(50, 50, kernel_size=(3, 3), stride=(1, 1), padding=(1, 1))
    (esa): ESA(
      (conv1): Conv2d(50, 12, kernel_size=(1, 1), stride=(1, 1))
      (conv_f): Conv2d(12, 12, kernel_size=(1, 1), stride=(1, 1))
      (conv_max): Conv2d(12, 12, kernel_size=(3, 3), stride=(1, 1), padding=(1, 1))
      (conv2): Conv2d(12, 12, kernel_size=(3, 3), stride=(2, 2))
      (conv3): Conv2d(12, 12, kernel_size=(3, 3), stride=(1, 1), padding=(1, 1))
      (conv3_): Conv2d(12, 12, kernel_size=(3, 3), stride=(1, 1), padding=(1, 1))
      (conv4): Conv2d(12, 50, kernel_size=(1, 1), stride=(1, 1))
      (sigmoid): Sigmoid()
      (relu): ReLU(inplace=True)
    )
    (esa2): ESA(
      (conv1): Conv2d(50, 12, kernel_size=(1, 1), stride=(1, 1))
      (conv_f): Conv2d(12, 12, kernel_size=(1, 1), stride=(1, 1))
      (conv_max): Conv2d(12, 12, kernel_size=(3, 3), stride=(1, 1), padding=(1, 1))
      (conv2): Conv2d(12, 12, kernel_size=(3, 3), stride=(2, 2))
      (conv3): Conv2d(12, 12, kernel_size=(3, 3), stride=(1, 1), padding=(1, 1))
      (conv3_): Conv2d(12, 12, kernel_size=(3, 3), stride=(1, 1), padding=(1, 1))
      (conv4): Conv2d(12, 50, kernel_size=(1, 1), stride=(1, 1))
      (sigmoid): Sigmoid()
      (relu): ReLU(inplace=True)
    )
    (swinT): SwinT(
      (transformer_body): Sequential(
        (0): BasicLayer(
          (blocks): ModuleList(
            (0): SwinTransformerBlock(
              (norm1): LayerNorm((50,), eps=1e-05, elementwise_affine=True)
              (attn): WindowAttention(
                (qkv): Linear(in_features=50, out_features=150, bias=True)
                (proj): Linear(in_features=50, out_features=50, bias=True)
                (softmax): Softmax(dim=-1)
              )
              (norm2): LayerNorm((50,), eps=1e-05, elementwise_affine=True)
              (mlp): Mlp(
                (fc1): Linear(in_features=50, out_features=100, bias=True)
                (act): GELU(approximate=none)
                (fc2): Linear(in_features=100, out_features=50, bias=True)
              )
            )
            (1): SwinTransformerBlock(
              (norm1): LayerNorm((50,), eps=1e-05, elementwise_affine=True)
              (attn): WindowAttention(
                (qkv): Linear(in_features=50, out_features=150, bias=True)
                (proj): Linear(in_features=50, out_features=50, bias=True)
                (softmax): Softmax(dim=-1)
              )
              (norm2): LayerNorm((50,), eps=1e-05, elementwise_affine=True)
              (mlp): Mlp(
                (fc1): Linear(in_features=50, out_features=100, bias=True)
                (act): GELU(approximate=none)
                (fc2): Linear(in_features=100, out_features=50, bias=True)
              )
            )
          )
          (patch_embed): PatchEmbed(
            (norm): LayerNorm((50,), eps=1e-05, elementwise_affine=True)
          )
          (patch_unembed): PatchUnEmbed()
        )
      )
    )
  )
  (B2): HBCT(
    (c1_r): Conv2d(50, 50, kernel_size=(3, 3), stride=(1, 1), padding=(1, 1))
    (esa): ESA(
      (conv1): Conv2d(50, 12, kernel_size=(1, 1), stride=(1, 1))
      (conv_f): Conv2d(12, 12, kernel_size=(1, 1), stride=(1, 1))
      (conv_max): Conv2d(12, 12, kernel_size=(3, 3), stride=(1, 1), padding=(1, 1))
      (conv2): Conv2d(12, 12, kernel_size=(3, 3), stride=(2, 2))
      (conv3): Conv2d(12, 12, kernel_size=(3, 3), stride=(1, 1), padding=(1, 1))
      (conv3_): Conv2d(12, 12, kernel_size=(3, 3), stride=(1, 1), padding=(1, 1))
      (conv4): Conv2d(12, 50, kernel_size=(1, 1), stride=(1, 1))
      (sigmoid): Sigmoid()
      (relu): ReLU(inplace=True)
    )
    (esa2): ESA(
      (conv1): Conv2d(50, 12, kernel_size=(1, 1), stride=(1, 1))
      (conv_f): Conv2d(12, 12, kernel_size=(1, 1), stride=(1, 1))
      (conv_max): Conv2d(12, 12, kernel_size=(3, 3), stride=(1, 1), padding=(1, 1))
      (conv2): Conv2d(12, 12, kernel_size=(3, 3), stride=(2, 2))
      (conv3): Conv2d(12, 12, kernel_size=(3, 3), stride=(1, 1), padding=(1, 1))
      (conv3_): Conv2d(12, 12, kernel_size=(3, 3), stride=(1, 1), padding=(1, 1))
      (conv4): Conv2d(12, 50, kernel_size=(1, 1), stride=(1, 1))
      (sigmoid): Sigmoid()
      (relu): ReLU(inplace=True)
    )
    (swinT): SwinT(
      (transformer_body): Sequential(
        (0): BasicLayer(
          (blocks): ModuleList(
            (0): SwinTransformerBlock(
              (norm1): LayerNorm((50,), eps=1e-05, elementwise_affine=True)
              (attn): WindowAttention(
                (qkv): Linear(in_features=50, out_features=150, bias=True)
                (proj): Linear(in_features=50, out_features=50, bias=True)
                (softmax): Softmax(dim=-1)
              )
              (norm2): LayerNorm((50,), eps=1e-05, elementwise_affine=True)
              (mlp): Mlp(
                (fc1): Linear(in_features=50, out_features=100, bias=True)
                (act): GELU(approximate=none)
                (fc2): Linear(in_features=100, out_features=50, bias=True)
              )
            )
            (1): SwinTransformerBlock(
              (norm1): LayerNorm((50,), eps=1e-05, elementwise_affine=True)
              (attn): WindowAttention(
                (qkv): Linear(in_features=50, out_features=150, bias=True)
                (proj): Linear(in_features=50, out_features=50, bias=True)
                (softmax): Softmax(dim=-1)
              )
              (norm2): LayerNorm((50,), eps=1e-05, elementwise_affine=True)
              (mlp): Mlp(
                (fc1): Linear(in_features=50, out_features=100, bias=True)
                (act): GELU(approximate=none)
                (fc2): Linear(in_features=100, out_features=50, bias=True)
              )
            )
          )
          (patch_embed): PatchEmbed(
            (norm): LayerNorm((50,), eps=1e-05, elementwise_affine=True)
          )
          (patch_unembed): PatchUnEmbed()
        )
      )
    )
  )
  (B3): HBCT(
    (c1_r): Conv2d(50, 50, kernel_size=(3, 3), stride=(1, 1), padding=(1, 1))
    (esa): ESA(
      (conv1): Conv2d(50, 12, kernel_size=(1, 1), stride=(1, 1))
      (conv_f): Conv2d(12, 12, kernel_size=(1, 1), stride=(1, 1))
      (conv_max): Conv2d(12, 12, kernel_size=(3, 3), stride=(1, 1), padding=(1, 1))
      (conv2): Conv2d(12, 12, kernel_size=(3, 3), stride=(2, 2))
      (conv3): Conv2d(12, 12, kernel_size=(3, 3), stride=(1, 1), padding=(1, 1))
      (conv3_): Conv2d(12, 12, kernel_size=(3, 3), stride=(1, 1), padding=(1, 1))
      (conv4): Conv2d(12, 50, kernel_size=(1, 1), stride=(1, 1))
      (sigmoid): Sigmoid()
      (relu): ReLU(inplace=True)
    )
    (esa2): ESA(
      (conv1): Conv2d(50, 12, kernel_size=(1, 1), stride=(1, 1))
      (conv_f): Conv2d(12, 12, kernel_size=(1, 1), stride=(1, 1))
      (conv_max): Conv2d(12, 12, kernel_size=(3, 3), stride=(1, 1), padding=(1, 1))
      (conv2): Conv2d(12, 12, kernel_size=(3, 3), stride=(2, 2))
      (conv3): Conv2d(12, 12, kernel_size=(3, 3), stride=(1, 1), padding=(1, 1))
      (conv3_): Conv2d(12, 12, kernel_size=(3, 3), stride=(1, 1), padding=(1, 1))
      (conv4): Conv2d(12, 50, kernel_size=(1, 1), stride=(1, 1))
      (sigmoid): Sigmoid()
      (relu): ReLU(inplace=True)
    )
    (swinT): SwinT(
      (transformer_body): Sequential(
        (0): BasicLayer(
          (blocks): ModuleList(
            (0): SwinTransformerBlock(
              (norm1): LayerNorm((50,), eps=1e-05, elementwise_affine=True)
              (attn): WindowAttention(
                (qkv): Linear(in_features=50, out_features=150, bias=True)
                (proj): Linear(in_features=50, out_features=50, bias=True)
                (softmax): Softmax(dim=-1)
              )
              (norm2): LayerNorm((50,), eps=1e-05, elementwise_affine=True)
              (mlp): Mlp(
                (fc1): Linear(in_features=50, out_features=100, bias=True)
                (act): GELU(approximate=none)
                (fc2): Linear(in_features=100, out_features=50, bias=True)
              )
            )
            (1): SwinTransformerBlock(
              (norm1): LayerNorm((50,), eps=1e-05, elementwise_affine=True)
              (attn): WindowAttention(
                (qkv): Linear(in_features=50, out_features=150, bias=True)
                (proj): Linear(in_features=50, out_features=50, bias=True)
                (softmax): Softmax(dim=-1)
              )
              (norm2): LayerNorm((50,), eps=1e-05, elementwise_affine=True)
              (mlp): Mlp(
                (fc1): Linear(in_features=50, out_features=100, bias=True)
                (act): GELU(approximate=none)
                (fc2): Linear(in_features=100, out_features=50, bias=True)
              )
            )
          )
          (patch_embed): PatchEmbed(
            (norm): LayerNorm((50,), eps=1e-05, elementwise_affine=True)
          )
          (patch_unembed): PatchUnEmbed()
        )
      )
    )
  )
  (B4): HBCT(
    (c1_r): Conv2d(50, 50, kernel_size=(3, 3), stride=(1, 1), padding=(1, 1))
    (esa): ESA(
      (conv1): Conv2d(50, 12, kernel_size=(1, 1), stride=(1, 1))
      (conv_f): Conv2d(12, 12, kernel_size=(1, 1), stride=(1, 1))
      (conv_max): Conv2d(12, 12, kernel_size=(3, 3), stride=(1, 1), padding=(1, 1))
      (conv2): Conv2d(12, 12, kernel_size=(3, 3), stride=(2, 2))
      (conv3): Conv2d(12, 12, kernel_size=(3, 3), stride=(1, 1), padding=(1, 1))
      (conv3_): Conv2d(12, 12, kernel_size=(3, 3), stride=(1, 1), padding=(1, 1))
      (conv4): Conv2d(12, 50, kernel_size=(1, 1), stride=(1, 1))
      (sigmoid): Sigmoid()
      (relu): ReLU(inplace=True)
    )
    (esa2): ESA(
      (conv1): Conv2d(50, 12, kernel_size=(1, 1), stride=(1, 1))
      (conv_f): Conv2d(12, 12, kernel_size=(1, 1), stride=(1, 1))
      (conv_max): Conv2d(12, 12, kernel_size=(3, 3), stride=(1, 1), padding=(1, 1))
      (conv2): Conv2d(12, 12, kernel_size=(3, 3), stride=(2, 2))
      (conv3): Conv2d(12, 12, kernel_size=(3, 3), stride=(1, 1), padding=(1, 1))
      (conv3_): Conv2d(12, 12, kernel_size=(3, 3), stride=(1, 1), padding=(1, 1))
      (conv4): Conv2d(12, 50, kernel_size=(1, 1), stride=(1, 1))
      (sigmoid): Sigmoid()
      (relu): ReLU(inplace=True)
    )
    (swinT): SwinT(
      (transformer_body): Sequential(
        (0): BasicLayer(
          (blocks): ModuleList(
            (0): SwinTransformerBlock(
              (norm1): LayerNorm((50,), eps=1e-05, elementwise_affine=True)
              (attn): WindowAttention(
                (qkv): Linear(in_features=50, out_features=150, bias=True)
                (proj): Linear(in_features=50, out_features=50, bias=True)
                (softmax): Softmax(dim=-1)
              )
              (norm2): LayerNorm((50,), eps=1e-05, elementwise_affine=True)
              (mlp): Mlp(
                (fc1): Linear(in_features=50, out_features=100, bias=True)
                (act): GELU(approximate=none)
                (fc2): Linear(in_features=100, out_features=50, bias=True)
              )
            )
            (1): SwinTransformerBlock(
              (norm1): LayerNorm((50,), eps=1e-05, elementwise_affine=True)
              (attn): WindowAttention(
                (qkv): Linear(in_features=50, out_features=150, bias=True)
                (proj): Linear(in_features=50, out_features=50, bias=True)
                (softmax): Softmax(dim=-1)
              )
              (norm2): LayerNorm((50,), eps=1e-05, elementwise_affine=True)
              (mlp): Mlp(
                (fc1): Linear(in_features=50, out_features=100, bias=True)
                (act): GELU(approximate=none)
                (fc2): Linear(in_features=100, out_features=50, bias=True)
              )
            )
          )
          (patch_embed): PatchEmbed(
            (norm): LayerNorm((50,), eps=1e-05, elementwise_affine=True)
          )
          (patch_unembed): PatchUnEmbed()
        )
      )
    )
  )
  (c): Sequential(
    (0): Conv2d(200, 50, kernel_size=(1, 1), stride=(1, 1))
    (1): LeakyReLU(negative_slope=0.05, inplace=True)
  )
  (LR_conv): Conv2d(50, 50, kernel_size=(3, 3), stride=(1, 1), padding=(1, 1))
  (upsampler): Sequential(
    (0): Conv2d(50, 48, kernel_size=(3, 3), stride=(1, 1), padding=(1, 1))
    (1): PixelShuffle(upscale_factor=4)
  )
)
[Epoch 0]	Learning rate: 5.00e-4
[1600/16000]	[L1: 0.0935]	60.7+2.6s
[3200/16000]	[L1: 0.0709]	61.0+0.1s
[4800/16000]	[L1: 0.0608]	61.3+0.1s
[6400/16000]	[L1: 0.0550]	61.2+0.1s
[8000/16000]	[L1: 0.0512]	61.2+0.0s
[9600/16000]	[L1: 0.0483]	61.2+0.0s
[11200/16000]	[L1: 0.0462]	61.1+0.2s
[12800/16000]	[L1: 0.0446]	61.2+0.1s
[14400/16000]	[L1: 0.0434]	61.2+0.1s
[16000/16000]	[L1: 0.0423]	61.7+0.2s

Evaluation:
HNCT(
  (fea_conv): Conv2d(3, 50, kernel_size=(3, 3), stride=(1, 1), padding=(1, 1))
  (B1): HBCT(
    (c1_r): Conv2d(50, 50, kernel_size=(3, 3), stride=(1, 1), padding=(1, 1))
    (esa): ESA(
      (conv1): Conv2d(50, 12, kernel_size=(1, 1), stride=(1, 1))
      (conv_f): Conv2d(12, 12, kernel_size=(1, 1), stride=(1, 1))
      (conv_max): Conv2d(12, 12, kernel_size=(3, 3), stride=(1, 1), padding=(1, 1))
      (conv2): Conv2d(12, 12, kernel_size=(3, 3), stride=(2, 2))
      (conv3): Conv2d(12, 12, kernel_size=(3, 3), stride=(1, 1), padding=(1, 1))
      (conv3_): Conv2d(12, 12, kernel_size=(3, 3), stride=(1, 1), padding=(1, 1))
      (conv4): Conv2d(12, 50, kernel_size=(1, 1), stride=(1, 1))
      (sigmoid): Sigmoid()
      (relu): ReLU(inplace=True)
    )
    (esa2): ESA(
      (conv1): Conv2d(50, 12, kernel_size=(1, 1), stride=(1, 1))
      (conv_f): Conv2d(12, 12, kernel_size=(1, 1), stride=(1, 1))
      (conv_max): Conv2d(12, 12, kernel_size=(3, 3), stride=(1, 1), padding=(1, 1))
      (conv2): Conv2d(12, 12, kernel_size=(3, 3), stride=(2, 2))
      (conv3): Conv2d(12, 12, kernel_size=(3, 3), stride=(1, 1), padding=(1, 1))
      (conv3_): Conv2d(12, 12, kernel_size=(3, 3), stride=(1, 1), padding=(1, 1))
      (conv4): Conv2d(12, 50, kernel_size=(1, 1), stride=(1, 1))
      (sigmoid): Sigmoid()
      (relu): ReLU(inplace=True)
    )
    (swinT): SwinT(
      (transformer_body): Sequential(
        (0): BasicLayer(
          (blocks): ModuleList(
            (0): SwinTransformerBlock(
              (norm1): LayerNorm((50,), eps=1e-05, elementwise_affine=True)
              (attn): WindowAttention(
                (qkv): Linear(in_features=50, out_features=150, bias=True)
                (proj): Linear(in_features=50, out_features=50, bias=True)
                (softmax): Softmax(dim=-1)
              )
              (norm2): LayerNorm((50,), eps=1e-05, elementwise_affine=True)
              (mlp): Mlp(
                (fc1): Linear(in_features=50, out_features=100, bias=True)
                (act): GELU(approximate=none)
                (fc2): Linear(in_features=100, out_features=50, bias=True)
              )
            )
            (1): SwinTransformerBlock(
              (norm1): LayerNorm((50,), eps=1e-05, elementwise_affine=True)
              (attn): WindowAttention(
                (qkv): Linear(in_features=50, out_features=150, bias=True)
                (proj): Linear(in_features=50, out_features=50, bias=True)
                (softmax): Softmax(dim=-1)
              )
              (norm2): LayerNorm((50,), eps=1e-05, elementwise_affine=True)
              (mlp): Mlp(
                (fc1): Linear(in_features=50, out_features=100, bias=True)
                (act): GELU(approximate=none)
                (fc2): Linear(in_features=100, out_features=50, bias=True)
              )
            )
          )
          (patch_embed): PatchEmbed(
            (norm): LayerNorm((50,), eps=1e-05, elementwise_affine=True)
          )
          (patch_unembed): PatchUnEmbed()
        )
      )
    )
  )
  (B2): HBCT(
    (c1_r): Conv2d(50, 50, kernel_size=(3, 3), stride=(1, 1), padding=(1, 1))
    (esa): ESA(
      (conv1): Conv2d(50, 12, kernel_size=(1, 1), stride=(1, 1))
      (conv_f): Conv2d(12, 12, kernel_size=(1, 1), stride=(1, 1))
      (conv_max): Conv2d(12, 12, kernel_size=(3, 3), stride=(1, 1), padding=(1, 1))
      (conv2): Conv2d(12, 12, kernel_size=(3, 3), stride=(2, 2))
      (conv3): Conv2d(12, 12, kernel_size=(3, 3), stride=(1, 1), padding=(1, 1))
      (conv3_): Conv2d(12, 12, kernel_size=(3, 3), stride=(1, 1), padding=(1, 1))
      (conv4): Conv2d(12, 50, kernel_size=(1, 1), stride=(1, 1))
      (sigmoid): Sigmoid()
      (relu): ReLU(inplace=True)
    )
    (esa2): ESA(
      (conv1): Conv2d(50, 12, kernel_size=(1, 1), stride=(1, 1))
      (conv_f): Conv2d(12, 12, kernel_size=(1, 1), stride=(1, 1))
      (conv_max): Conv2d(12, 12, kernel_size=(3, 3), stride=(1, 1), padding=(1, 1))
      (conv2): Conv2d(12, 12, kernel_size=(3, 3), stride=(2, 2))
      (conv3): Conv2d(12, 12, kernel_size=(3, 3), stride=(1, 1), padding=(1, 1))
      (conv3_): Conv2d(12, 12, kernel_size=(3, 3), stride=(1, 1), padding=(1, 1))
      (conv4): Conv2d(12, 50, kernel_size=(1, 1), stride=(1, 1))
      (sigmoid): Sigmoid()
      (relu): ReLU(inplace=True)
    )
    (swinT): SwinT(
      (transformer_body): Sequential(
        (0): BasicLayer(
          (blocks): ModuleList(
            (0): SwinTransformerBlock(
              (norm1): LayerNorm((50,), eps=1e-05, elementwise_affine=True)
              (attn): WindowAttention(
                (qkv): Linear(in_features=50, out_features=150, bias=True)
                (proj): Linear(in_features=50, out_features=50, bias=True)
                (softmax): Softmax(dim=-1)
              )
              (norm2): LayerNorm((50,), eps=1e-05, elementwise_affine=True)
              (mlp): Mlp(
                (fc1): Linear(in_features=50, out_features=100, bias=True)
                (act): GELU(approximate=none)
                (fc2): Linear(in_features=100, out_features=50, bias=True)
              )
            )
            (1): SwinTransformerBlock(
              (norm1): LayerNorm((50,), eps=1e-05, elementwise_affine=True)
              (attn): WindowAttention(
                (qkv): Linear(in_features=50, out_features=150, bias=True)
                (proj): Linear(in_features=50, out_features=50, bias=True)
                (softmax): Softmax(dim=-1)
              )
              (norm2): LayerNorm((50,), eps=1e-05, elementwise_affine=True)
              (mlp): Mlp(
                (fc1): Linear(in_features=50, out_features=100, bias=True)
                (act): GELU(approximate=none)
                (fc2): Linear(in_features=100, out_features=50, bias=True)
              )
            )
          )
          (patch_embed): PatchEmbed(
            (norm): LayerNorm((50,), eps=1e-05, elementwise_affine=True)
          )
          (patch_unembed): PatchUnEmbed()
        )
      )
    )
  )
  (B3): HBCT(
    (c1_r): Conv2d(50, 50, kernel_size=(3, 3), stride=(1, 1), padding=(1, 1))
    (esa): ESA(
      (conv1): Conv2d(50, 12, kernel_size=(1, 1), stride=(1, 1))
      (conv_f): Conv2d(12, 12, kernel_size=(1, 1), stride=(1, 1))
      (conv_max): Conv2d(12, 12, kernel_size=(3, 3), stride=(1, 1), padding=(1, 1))
      (conv2): Conv2d(12, 12, kernel_size=(3, 3), stride=(2, 2))
      (conv3): Conv2d(12, 12, kernel_size=(3, 3), stride=(1, 1), padding=(1, 1))
      (conv3_): Conv2d(12, 12, kernel_size=(3, 3), stride=(1, 1), padding=(1, 1))
      (conv4): Conv2d(12, 50, kernel_size=(1, 1), stride=(1, 1))
      (sigmoid): Sigmoid()
      (relu): ReLU(inplace=True)
    )
    (esa2): ESA(
      (conv1): Conv2d(50, 12, kernel_size=(1, 1), stride=(1, 1))
      (conv_f): Conv2d(12, 12, kernel_size=(1, 1), stride=(1, 1))
      (conv_max): Conv2d(12, 12, kernel_size=(3, 3), stride=(1, 1), padding=(1, 1))
      (conv2): Conv2d(12, 12, kernel_size=(3, 3), stride=(2, 2))
      (conv3): Conv2d(12, 12, kernel_size=(3, 3), stride=(1, 1), padding=(1, 1))
      (conv3_): Conv2d(12, 12, kernel_size=(3, 3), stride=(1, 1), padding=(1, 1))
      (conv4): Conv2d(12, 50, kernel_size=(1, 1), stride=(1, 1))
      (sigmoid): Sigmoid()
      (relu): ReLU(inplace=True)
    )
    (swinT): SwinT(
      (transformer_body): Sequential(
        (0): BasicLayer(
          (blocks): ModuleList(
            (0): SwinTransformerBlock(
              (norm1): LayerNorm((50,), eps=1e-05, elementwise_affine=True)
              (attn): WindowAttention(
                (qkv): Linear(in_features=50, out_features=150, bias=True)
                (proj): Linear(in_features=50, out_features=50, bias=True)
                (softmax): Softmax(dim=-1)
              )
              (norm2): LayerNorm((50,), eps=1e-05, elementwise_affine=True)
              (mlp): Mlp(
                (fc1): Linear(in_features=50, out_features=100, bias=True)
                (act): GELU(approximate=none)
                (fc2): Linear(in_features=100, out_features=50, bias=True)
              )
            )
            (1): SwinTransformerBlock(
              (norm1): LayerNorm((50,), eps=1e-05, elementwise_affine=True)
              (attn): WindowAttention(
                (qkv): Linear(in_features=50, out_features=150, bias=True)
                (proj): Linear(in_features=50, out_features=50, bias=True)
                (softmax): Softmax(dim=-1)
              )
              (norm2): LayerNorm((50,), eps=1e-05, elementwise_affine=True)
              (mlp): Mlp(
                (fc1): Linear(in_features=50, out_features=100, bias=True)
                (act): GELU(approximate=none)
                (fc2): Linear(in_features=100, out_features=50, bias=True)
              )
            )
          )
          (patch_embed): PatchEmbed(
            (norm): LayerNorm((50,), eps=1e-05, elementwise_affine=True)
          )
          (patch_unembed): PatchUnEmbed()
        )
      )
    )
  )
  (B4): HBCT(
    (c1_r): Conv2d(50, 50, kernel_size=(3, 3), stride=(1, 1), padding=(1, 1))
    (esa): ESA(
      (conv1): Conv2d(50, 12, kernel_size=(1, 1), stride=(1, 1))
      (conv_f): Conv2d(12, 12, kernel_size=(1, 1), stride=(1, 1))
      (conv_max): Conv2d(12, 12, kernel_size=(3, 3), stride=(1, 1), padding=(1, 1))
      (conv2): Conv2d(12, 12, kernel_size=(3, 3), stride=(2, 2))
      (conv3): Conv2d(12, 12, kernel_size=(3, 3), stride=(1, 1), padding=(1, 1))
      (conv3_): Conv2d(12, 12, kernel_size=(3, 3), stride=(1, 1), padding=(1, 1))
      (conv4): Conv2d(12, 50, kernel_size=(1, 1), stride=(1, 1))
      (sigmoid): Sigmoid()
      (relu): ReLU(inplace=True)
    )
    (esa2): ESA(
      (conv1): Conv2d(50, 12, kernel_size=(1, 1), stride=(1, 1))
      (conv_f): Conv2d(12, 12, kernel_size=(1, 1), stride=(1, 1))
      (conv_max): Conv2d(12, 12, kernel_size=(3, 3), stride=(1, 1), padding=(1, 1))
      (conv2): Conv2d(12, 12, kernel_size=(3, 3), stride=(2, 2))
      (conv3): Conv2d(12, 12, kernel_size=(3, 3), stride=(1, 1), padding=(1, 1))
      (conv3_): Conv2d(12, 12, kernel_size=(3, 3), stride=(1, 1), padding=(1, 1))
      (conv4): Conv2d(12, 50, kernel_size=(1, 1), stride=(1, 1))
      (sigmoid): Sigmoid()
      (relu): ReLU(inplace=True)
    )
    (swinT): SwinT(
      (transformer_body): Sequential(
        (0): BasicLayer(
          (blocks): ModuleList(
            (0): SwinTransformerBlock(
              (norm1): LayerNorm((50,), eps=1e-05, elementwise_affine=True)
              (attn): WindowAttention(
                (qkv): Linear(in_features=50, out_features=150, bias=True)
                (proj): Linear(in_features=50, out_features=50, bias=True)
                (softmax): Softmax(dim=-1)
              )
              (norm2): LayerNorm((50,), eps=1e-05, elementwise_affine=True)
              (mlp): Mlp(
                (fc1): Linear(in_features=50, out_features=100, bias=True)
                (act): GELU(approximate=none)
                (fc2): Linear(in_features=100, out_features=50, bias=True)
              )
            )
            (1): SwinTransformerBlock(
              (norm1): LayerNorm((50,), eps=1e-05, elementwise_affine=True)
              (attn): WindowAttention(
                (qkv): Linear(in_features=50, out_features=150, bias=True)
                (proj): Linear(in_features=50, out_features=50, bias=True)
                (softmax): Softmax(dim=-1)
              )
              (norm2): LayerNorm((50,), eps=1e-05, elementwise_affine=True)
              (mlp): Mlp(
                (fc1): Linear(in_features=50, out_features=100, bias=True)
                (act): GELU(approximate=none)
                (fc2): Linear(in_features=100, out_features=50, bias=True)
              )
            )
          )
          (patch_embed): PatchEmbed(
            (norm): LayerNorm((50,), eps=1e-05, elementwise_affine=True)
          )
          (patch_unembed): PatchUnEmbed()
        )
      )
    )
  )
  (c): Sequential(
    (0): Conv2d(200, 50, kernel_size=(1, 1), stride=(1, 1))
    (1): LeakyReLU(negative_slope=0.05, inplace=True)
  )
  (LR_conv): Conv2d(50, 50, kernel_size=(3, 3), stride=(1, 1), padding=(1, 1))
  (upsampler): Sequential(
    (0): Conv2d(50, 48, kernel_size=(3, 3), stride=(1, 1), padding=(1, 1))
    (1): PixelShuffle(upscale_factor=4)
  )
)
[Epoch 0]	Learning rate: 5.00e-4
[1600/16000]	[L1: 0.0897]	64.9+3.4s
[3200/16000]	[L1: 0.0679]	61.7+0.2s
[4800/16000]	[L1: 0.0586]	61.2+0.0s
[6400/16000]	[L1: 0.0532]	61.3+0.1s
[8000/16000]	[L1: 0.0496]	61.2+0.1s
[9600/16000]	[L1: 0.0471]	61.4+0.1s
[11200/16000]	[L1: 0.0451]	61.3+0.2s
[12800/16000]	[L1: 0.0437]	61.3+0.2s
…
